models/ckpt/ogbn-arxiv-sage.NS.1.pt (torch, 871103 bytes, 6 tensors)

convs.0.lin_l.weight f4 [256, 128]
000000 28 0a 39 3c 7c 17 a4 3d 46 16 0e bc d0 1b 90 3c
       0.011293925 0.08012292 -0.008672303 0.017591387
000010 74 08 c0 bb 4d c1 99 bd e6 cc 87 3d 26 03 5a bd
       -0.0058603827 -0.07507572 0.06630878 -0.05322566
000020 88 86 8a bd cd 7e 85 3d 67 2c 39 bd fe c8 89 3d
       -0.06763941 0.06518326 -0.04520836 0.06727789
000030 5b 16 8d bd 78 5b a0 3d 4f 3e 73 bd 0d 6d 98 3d
       -0.068890296 0.07829946 -0.059385594 0.07442675
000040 17 ac 9d bd 2e 99 7d 3d e4 6b b6 3c a8 fe d0 b8
       -0.07698839 0.06191366 0.022268243 -9.965646e-05
000050 e8 f0 8f 3c 13 a1 6f bb 1f 0c 9a bd 8b 3e 47 bd
       0.017570928 -0.0036564514 -0.07521843 -0.04864363
000060 cd ce 8e bc 93 85 b4 bd f5 70 66 bd 64 7b 85 3c
       -0.017432595 -0.0881454 -0.056260068 0.016294189
000070 37 e6 4d bd 84 ab 90 3c 5a 84 89 bc 41 94 f5 3c
       -0.050268378 0.01765991 -0.016786743 0.02997792
000080 62 70 89 bd 16 47 c8 3c 60 8c 80 bc 1f fe a4 bd
       -0.067108884 0.024447959 -0.015691936 -0.08056282
000090 2d 9b 53 3d bc b8 ee 3b 74 88 7c 3d c3 b8 54 3d
       0.05166166 0.0072852056 0.06165357 0.051934015
0000a0 ef 77 a2 3d 63 b7 28 bd 68 83 37 3d c6 56 24 3d
       0.07933032 -0.041190516 0.044803053 0.040121816
0000b0 5d 8a 66 bd c8 05 85 3d 18 15 9a bd 24 02 3c bd
       -0.056284297 0.06495243 -0.075235546 -0.04590048
0000c0 fa cd 05 3d e4 60 fb 3c ec c3 8f bd dd 7a 6a bd
       0.032667138 0.03068585 -0.07019791 -0.057246078
0000d0 5f 93 8b 3d 02 8a 18 bb 5f f4 a8 bd 33 b9 bf bd
       0.06815218 -0.0023275618 -0.08249735 -0.09361496
0000e0 22 a4 90 3a 29 40 88 3d ae 81 08 bb e0 e1 58 3b
       0.0011035244 0.066528626 -0.0020829248 0.0033093616
0000f0 59 92 f2 b9 65 00 98 3d 6e 22 14 bd a4 ff 2f 3d
       -0.00046266874 0.0742195 -0.036165647 0.042968407
000100 2c 49 c1 bd c3 be b3 bc 1c 49 73 bd f2 e3 88 bd
       -0.094377846 -0.021941548 -0.059395894 -0.06684102
000110 38 8f 1a 3b 55 4c 06 bd 36 bc 56 3d d2 7e 7c 3d
       0.00235839 -0.03278764 0.052425586 0.061644383
000120 f2 dd a4 3d fd d1 1c 3d b6 1e 8b bc 85 2a 40 3d
       0.08050145 0.038286198 -0.016982418 0.04691555
000130 8a a4 9e bd 37 c3 80 3d 34 5c 9c bd fd a4 56 3d
       -0.07746227 0.06287234 -0.07634774 0.05240344
000140 9c 9d 9b bc 44 6e b4 38 74 76 1b bd ce ab 31 3d
       -0.018996052 8.6036074e-05 -0.037954763 0.043376736
000150 7a 5f 7f bc be 7b 82 3d 05 2a 9e 3b 84 98 15 3d
       -0.015586728 0.06371258 0.0048267865 0.036522403
000160 d5 91 74 bd ed 10 ad bd 10 20 9b bc 9d c0 98 bc
       -0.05970939 -0.08450494 -0.018936187 -0.018646533
000170 d3 48 bc bc 77 89 a7 3d 14 00 c2 3b f7 a1 a9 bc
       -0.022983944 0.08180516 0.0059204195 -0.020707114
000180 f2 57 7f bd 7c 92 49 3d 0c b0 d7 3c fd dc 4e 3d
       -0.06233973 0.049211964 0.026329063 0.05050372
000190 30 35 ac bd d5 38 65 bc 62 07 81 3d ea 2c 42 3d
       -0.08408582 -0.013990601 0.06300236 0.047406115
0001a0 d0 62 95 bc 29 33 23 bd c4 63 8c bd ec 93 43 bd
       -0.018235594 -0.039843712 -0.06854966 -0.04774849
0001b0 71 12 28 bd cd bf 31 3b c3 f5 bb bb 43 29 93 3d
       -0.041033212 0.0027122379 -0.005736084 0.071856044
0001c0 64 74 36 bd ad 5e 12 bc 5d 94 bb bd c8 28 d0 3a
       -0.044544592 -0.008933705 -0.091591574 0.0015881294
0001d0 c5 1f 6f 3d a3 1b b0 3d 55 04 68 bc 4b 00 9b bd
       0.058379907 0.08599021 -0.014161189 -0.07568415
0001e0 d3 1b 8f bb 93 f0 f8 bc c1 5d 9f bd 1e 42 04 3d
       -0.0043673306 -0.030388152 -0.07781554 0.032289617
0001f0 2b 31 83 3d 78 3f 8f 3d 91 0d 74 3d 20 0d 5a bc
       0.064058624 0.069945276 0.05958325 -0.013308793
000200 f2 3d cf bd e0 23 21 3e 60 26 62 3d 34 8d 78 3d
       -0.10119237 0.15736341 0.05521238 0.060681537
000210 c4 10 9c 3b 41 40 00 bd 45 ce 84 bc 04 bd c7 3d
       0.004762741 -0.031311277 -0.016211638 0.09752849
000220 0b e0 45 3d b6 49 e4 bd 61 06 15 be 01 1b 73 bd
       0.048309367 -0.11146872 -0.14553215 -0.059351925
000230 0b 79 93 3d 07 c8 66 3e 6b df a6 bd f9 51 c3 3c
       0.072008215 0.22537242 -0.08148082 0.023842799
000240 ea 42 aa 3d 35 04 b0 bd 7e a2 0b be 08 57 e6 bc
       0.08313544 -0.085945524 -0.13636205 -0.028117672
000250 9c 0f d0 3d 12 25 d1 3b f3 75 9f bd c1 e2 e9 bd
       0.10159227 0.006382593 -0.07786169 -0.11420203
000260 73 4c 2a 3e 4e 77 4d bc 9e da 1b bd b0 8c 5e bd
       0.16630726 -0.0125406515 -0.038050286 -0.05433339
000270 3f 86 94 3d 67 54 8a 3d e0 80 13 bd 02 b9 9a 3d
       0.07252168 0.0675438 -0.036011577 0.07554819
000280 31 ee 5f 3d cc a3 8a bd e2 c4 64 3d 32 af a6 bd
       0.054670516 -0.06769523 0.055851825 -0.081388846
000290 c7 16 9b bd 6f df 75 3c a1 25 8b 3d e1 be 5e 3d
       -0.07572704 0.015006884 0.067942865 0.054381255
0002a0 f8 7d 14 bd b2 ea 91 bd 46 86 89 bd ea d4 d0 3d
       -0.036252946 -0.07124843 -0.06715064 0.1019686
0002b0 cf d6 60 3d 65 34 26 bc 41 b2 b2 bc f5 be 23 be
       0.054892357 -0.010144328 -0.021813514 -0.15990813
0002c0 11 6d f5 3d 7e d9 3c 3c 14 b5 98 3b b0 75 cd 3d
       0.119836934 0.011526464 0.004660258 0.10032213
0002d0 ce d8 4f 3e e9 8e dc bd c9 cf e4 3c 27 cd db 3b
       0.20297548 -0.107694454 0.027931111 0.0067078057
0002e0 5a 47 9e bc 38 ff 43 3e ba b6 3b bd 40 fb 15 bc
       -0.019321132 0.19140327 -0.04582856 -0.009154141
0002f0 99 06 a9 bd bf ce 8a 3d 61 47 09 bd 1e cb fa bd
       -0.082532115 0.06777715 -0.033515338 -0.12245773
000300 87 04 ec bd 14 04 ac bc a8 81 1a bd b9 f3 60 3d
       -0.11524301 -0.020998038 -0.037721306 0.054919932
000310 e9 1a 07 be bb 80 7f 3d 54 10 08 be 2f b9 88 bd
       -0.13193859 0.062378626 -0.13287479 -0.06675946
000320 b0 d7 3c 3d 51 02 03 be 3a 48 ea 3d 59 94 15 3d
       0.046104133 -0.12793852 0.114395574 0.03651843
000330 6d 8e 01 be b0 07 e1 3c db e4 a3 b9 c0 1d 63 bd
       -0.12651987 0.027469486 -0.00031260293 -0.055448294
000340 43 08 54 bd 5e 29 bf bd 32 13 f7 3c 96 ce e7 bd
       -0.05176569 -0.09334062 0.03016052 -0.113187
000350 56 75 df bc c7 e9 9e 3d c1 ba 30 3c 91 1f 9f 3d
       -0.02727763 0.07759433 0.010786713 0.07769693
000360 f8 ae 98 3d 28 d8 b1 bd f0 a6 07 bd 66 42 ca ba
       0.07455248 -0.08683807 -0.03311819 -0.0015431165
000370 48 30 29 3b 8a ae aa bd b7 46 8a bc df 23 01 bd
       0.0025816131 -0.08334072 -0.016879423 -0.03152835
000380 f8 a6 55 3d 5f 73 2b be 18 28 1d 3d 69 b3 55 3d
       0.052161187 -0.1674323 0.038368315 0.052173052
000390 36 26 ac 3c f0 c8 88 3d b0 ae 5b 3b 6f 07 91 3c
       0.021014314 0.06678951 0.003352087 0.01770374
0003a0 df eb 53 bd cf e5 2b 3d dc 25 be 3c 45 02 60 bd
       -0.051738616 0.04196721 0.023211412 -0.054689664
0003b0 8b ef 20 be 7d ac 13 be be a9 94 3b 29 94 7f bc
       -0.15716378 -0.14421268 0.0045368364 -0.015599289
0003c0 c3 bc 13 bd 68 e4 33 bd 54 39 da bd 82 af 93 bc
       -0.03606869 -0.043918997 -0.10655466 -0.018028025
0003d0 75 95 a5 bd ec 46 16 bd 26 1f 84 3e b3 1f af b9
       -0.08085147 -0.03668873 0.25805014 -0.0003340222
0003e0 ba 56 a5 bd 1c cd dd bd cd 9c 43 bd 70 3b 8e bd
       -0.080731824 -0.10830137 -0.04775696 -0.069449306
0003f0 ac e1 b4 bd 2c e7 d7 3c f1 d8 84 bc 60 df 6b bd
       -0.08832106 0.026355349 -0.016216727 -0.057586074

convs.0.lin_r.weight f4 [256, 128]
000000 f3 77 1d 3d 2f bb 62 bd c2 aa 25 bc 60 7e 05 bd
       0.03844447 -0.055354293 -0.010111513 -0.032591224
000010 24 7f a8 bd 9d a0 93 bd af b3 7f 3d a0 e2 e1 bc
       -0.08227375 -0.07208369 0.06242722 -0.027573884
000020 84 19 d1 bd e8 77 95 bc 17 ed 3b 3d 40 96 91 bd
       -0.10209945 -0.018245652 0.045880403 -0.07108736
000030 03 67 10 bb a4 16 3c 3d c0 31 7b 3d 5e 0b 56 3d
       -0.0022034056 0.04592003 0.061326742 0.052256934
000040 2c cd 88 bd 0d f8 53 3d 35 f2 1b 3d 45 1f a0 bd
       -0.066797584 0.05175023 0.038072783 -0.07818464
000050 54 86 92 3d 7b 4d 2f 3d e7 40 43 3d 42 d3 21 3d
       0.07154527 0.0427985 0.047669318 0.03950811
000060 6c f1 f1 3c b2 93 1e bd 16 32 33 3d e6 81 ac 3d
       0.029534064 -0.038715072 0.043748938 0.08423214
000070 c7 b1 aa 3c 51 a8 5f bd ff 60 35 3c 83 d4 62 bc
       0.020836724 -0.05460388 0.011070489 -0.013844612
000080 32 81 85 3d 54 e6 7a bc 7c 15 1b bd 2b 17 22 bd
       0.06518783 -0.015313704 -0.037862286 -0.039572876
000090 81 3a 8b 3b 35 b1 d7 3c 43 d7 9c bd 5b 73 43 bd
       0.0042489176 0.026329616 -0.076582454 -0.047717433
0000a0 4a 48 5b 3d 3e 60 7f bd af 29 c2 bc 92 e8 8d bd
       0.053535737 -0.062347643 -0.023701517 -0.06929125
0000b0 38 f9 ae bd 5b 00 a7 bd d2 ea 1a bd 0d e8 83 bd
       -0.085436285 -0.08154365 -0.0378216 -0.064407445
0000c0 7a 05 50 3d b4 f4 cd bc e9 94 5f 3d 1b 72 80 bd
       0.050786473 -0.025141098 0.05458537 -0.06271764
0000d0 f8 dc 37 3d 42 9c 29 bd 88 29 36 bd 6b cb dd 3c
       0.044888467 -0.041408785 -0.0444732 0.027074536
0000e0 7f 02 34 3d 53 a5 8c 3d b1 34 8c bc e9 6d 92 3d
       0.043947693 0.068674706 -0.017114969 0.0714987
0000f0 22 71 ab bd 41 c0 53 3d d6 78 e9 3c 07 94 8a 3d
       -0.08371188 0.05169702 0.028500002 0.06766515
000100 cf 55 b4 3c 9d 16 c6 3c a3 d5 c6 bc 41 fd 02 bd
       0.022013573 0.024180705 -0.024271792 -0.031979803
000110 17 ff e8 ba 6b 6f 8f bd 34 ed 2e 3d ee 7c 4e 3c
       -0.0017776218 -0.07003673 0.042706683 0.012603028
000120 8f 2c a2 3d c3 ea 0e 3d 3d 52 d7 ba 87 94 08 bc
       0.07918655 0.034891855 -0.0016427707 -0.008336193
000130 2f 47 e8 bc 02 d6 89 bd 1c 78 ec 3c c6 9c 26 bd
       -0.028354255 -0.06730272 0.028865866 -0.040676855
000140 d6 b8 97 3d 70 ce 9d bd 7b 8c 19 bd 9c f1 29 bc
       0.074083015 -0.077053905 -0.03748749 -0.010372546
000150 5e e9 c6 bc 70 fb 12 3d 4d 9a 89 3c 0c 16 5b bd
       -0.0242812 0.03588432 0.01679721 -0.053487822
000160 d1 bf a1 bd 60 58 73 bd f1 b6 3a bd c1 4e 1c bd
       -0.07897914 -0.059410453 -0.045584623 -0.038161043
000170 77 f6 a2 bd fb 2c 15 bd f7 8d 18 bd cd 05 8d 3d
       -0.07957166 -0.03641985 -0.037244763 0.06885872
000180 2f 14 13 bc 5e e8 6e 3d c3 05 56 bc df bb a0 3d
       -0.00897698 0.05832707 -0.013062897 0.078483336
000190 2d 0f 70 bd c6 54 67 bd 0a ca 62 bd 74 4f 94 bd
       -0.058608223 -0.05647733 -0.05536846 -0.07241717
0001a0 c1 17 93 3d 8b 0e ec bc 26 0b f3 3c 01 d1 91 3d
       0.07182265 -0.028815528 0.029668402 0.071199425
0001b0 b1 0b 4e bd 1d 4f 64 3b d6 74 96 bd f6 07 f7 3c
       -0.05030412 0.0034837194 -0.073465034 0.030155163
0001c0 98 a2 04 3c fc d6 96 3c 01 43 07 3d 2c db 6b bc
       0.008095406 0.01841306 0.033022884 -0.014395516
0001d0 33 89 e8 bc ed 5c 0f bd 86 09 37 3d 10 22 0f bd
       -0.028385734 -0.03500073 0.044686817 -0.034944594
0001e0 bc 59 b1 3d 49 8b 4b bd 71 f5 b5 bd 64 bb 83 3c
       0.086596936 -0.04969338 -0.08884705 0.016080566
0001f0 0c f5 9d 3b f6 86 99 3c bb e8 28 bd 0a 91 df bc
       0.0048204716 0.018741112 -0.041237574 -0.02729084
000200 48 d5 2f bc 53 b4 c0 3d 8a da 30 bd 84 1f ee 3d
       -0.010732003 0.09409394 -0.043177165 0.11627105
000210 5b 97 6a 3d 1c 38 9d bd 41 d8 c9 bd 39 71 92 3d
       0.05727325 -0.07676718 -0.098557 0.07150502
000220 f5 05 84 3c 3f dc 22 be bf b5 38 3c 18 00 94 bb
       0.016116122 -0.1590433 0.0112738 -0.0045166127
000230 50 c0 44 3d f5 18 22 3c 6a 83 07 bd a5 e7 0f 3d
       0.048034966 0.0098936455 -0.03308431 0.035133023
000240 3e 02 7b 3c 49 8e cc 3c 44 b1 c5 3a 85 4b 24 3d
       0.015320359 0.02497019 0.0015082736 0.040111084
000250 f4 4a 3b bd 85 92 c3 3d f4 93 16 3d 1a 54 f8 bd
       -0.045725778 0.09549431 0.036762193 -0.12125416
000260 5e 28 93 3d b3 c4 0a 3d 1f ca d1 3c 86 7b b7 bd
       0.07185434 0.033878993 0.025609074 -0.08959107
000270 f4 24 57 3d 93 3e 41 3d a3 2d b0 bd b0 9e 61 3c
       0.052525476 0.047178816 -0.086024545 0.013770744
000280 10 0d 84 bd 26 47 e0 3a 84 57 86 bd 83 98 84 bc
       -0.06447804 0.0017111048 -0.06559661 -0.016186005
000290 69 a3 85 3d 47 ae 3e bd 87 b3 a3 bc a2 ff 81 bd
       0.06525309 -0.046552923 -0.019983066 -0.06347586
0002a0 20 95 3b 3d 73 f3 80 3d 7e f7 97 bd ac 14 bd 3d
       0.045796514 0.06296434 -0.07420252 0.092324585
0002b0 1f 3c 76 3d 0c 11 eb ba ae d9 fa 3c 06 d1 8b bc
       0.06011593 -0.0017934158 0.030621376 -0.017067444
0002c0 b1 d6 7a bc 2c d0 6a bd bc a9 99 bb d7 be d0 3c
       -0.0153099755 -0.057327434 -0.0046894234 0.025481625
0002d0 bb e2 06 3e 85 a4 eb bd a0 1b bb ba 2d a5 a0 3d
       0.13172428 -0.11505989 -0.0014275201 0.07844005
0002e0 61 6d dd 3c 19 7a f9 3d 2c 38 01 bd 89 d4 68 bc
       0.027029695 0.121814914 -0.03154771 -0.014210829
0002f0 13 97 74 bd 42 b4 55 3d 8c 89 62 3c ea 77 cc bd
       -0.059714388 0.05217386 0.013826739 -0.09983809
000300 c3 00 02 be 66 b9 cb 3c 91 93 a1 bc 97 fd 50 bd
       -0.12695603 0.024868678 -0.019723685 -0.051023092
000310 d8 5a bd b7 3a 0b 2c 3d 04 2f 20 be 86 71 05 bd
       -2.2572858e-05 0.042002894 -0.15642935 -0.032578968
000320 a3 e4 0e bd 59 e9 e4 bd 95 d8 95 3d 27 3a 8d bd
       -0.034886014 -0.1117732 0.073167 -0.06895857
000330 d0 ae 3d bc e6 ac 4d bd 8c a8 96 bc 0c cd 16 3c
       -0.011577323 -0.050213717 -0.018390916 0.00920416
000340 ae 1e a1 3d f6 85 b2 bd d7 cb 40 bd cd 9f bb bd
       0.0786718 -0.08716957 -0.047069397 -0.09161339
000350 39 18 8c 3d 20 0c 9c 3d 45 4b c7 bd e1 9f 98 3c
       0.068405576 0.076195 -0.097311534 0.018630924
000360 97 7b 10 3d 3c 64 f1 bd 88 44 e1 bb da df 18 bc
       0.035274114 -0.11786696 -0.0068746246 -0.009330714
000370 cb 62 15 bd 31 3c 9f bd 83 04 34 3c d1 fe 93 bd
       -0.03647117 -0.077751525 0.010987404 -0.07226337
000380 20 8d 20 bd 94 c3 13 bd 80 5b 7c 3d 75 1c 5e 3d
       -0.039197087 -0.03607519 0.0616107 0.054226357
000390 4e e9 86 bd f6 f3 61 bc 24 c8 f3 3d 57 26 3e 3c
       -0.06587468 -0.013791075 0.11903408 0.011605821
0003a0 e2 20 da bd 9e 0c 91 bd 64 d9 50 3d a6 b2 8e ba
       -0.10650803 -0.07082485 0.05098857 -0.0010886982
0003b0 30 9b 14 3b 55 67 98 bd f1 c1 c1 bd 33 bb 9d 3b
       0.0022675507 -0.07441584 -0.094608195 0.0048135757
0003c0 fd 01 06 be bc 3a 6b bd 42 5b 51 bd 0e 7e d8 bd
       -0.13086696 -0.05742906 -0.05111242 -0.10570918
0003d0 2a ac c5 bd 1c 59 f1 bc 7d 85 21 3e 61 dd 1b bc
       -0.09651978 -0.029461436 0.15773578 -0.00951323
0003e0 36 83 58 3d f3 7a 3d 3d 16 6b 35 3c c3 ea 72 bd
       0.052859508 0.04625983 0.011072895 -0.059305917
0003f0 00 60 51 bd 6f f9 df bd f8 bc 85 bd 94 65 40 3d
       -0.051116943 -0.109362476 -0.065301836 0.046971872

convs.1.lin_l.weight f4 [256, 256]
000000 a8 00 dc bb 56 d1 79 bd fa 5d c6 bc 60 98 3c bd
       -0.0067139454 -0.060990654 -0.024214733 -0.046043754
000010 08 c1 d4 bb 94 f7 4e bd a1 e6 6a bc cc c6 1f 3c
       -0.0064927377 -0.050529078 -0.014337213 0.009751987
000020 ae f9 25 bc 06 cf 5e bd d4 d0 c0 bd 10 41 92 bb
       -0.010130329 -0.05439665 -0.09414831 -0.0044633225
000030 1e a8 17 3e f6 b4 34 bd 14 f9 a1 3d 0b 99 7f bd
       0.14810225 -0.04411789 0.07908836 -0.062401813
000040 98 1c 86 bd ab e8 eb 3c 8e 36 f8 3d b2 de 1e 3d
       -0.065484226 0.028797468 0.121197805 0.038786598
000050 70 3d bd 3d 84 c1 d8 bc 5f d9 ae 3d 5d 6b 8c 3d
       0.09240234 -0.026459463 0.08537554 0.068564154
000060 37 d7 ff 3a 3e 75 3a 3d 71 ff 03 ba 81 e0 94 bc
       0.0019519095 0.045521967 -0.0005035317 -0.018173458
000070 41 6f b3 3a da 60 3a bd 6d be 3f 3d 5a 58 a4 3d
       0.0013689772 -0.04550252 0.046812464 0.08024664
000080 78 c2 06 3c 3e e3 f0 bb 6a bd e6 3c 3a d0 81 bc
       0.008225076 -0.007351308 0.028166492 -0.01584636
000090 41 b9 41 bd ed d8 92 3d 31 7b ba 3d 8a f7 8a 3c
       -0.047295813 0.071702816 0.09105528 0.016963739
0000a0 c7 84 cf ba 20 87 89 3d b0 a7 8e bd b1 98 f1 3b
       -0.0015832417 0.06715226 -0.069655776 0.0073729386
0000b0 a7 b8 96 bd 63 45 af 3d b8 56 46 3d 86 d1 a4 bd
       -0.073594384 0.08558156 0.048422545 -0.08047776
0000c0 3f dc a8 bc 07 f5 ad bc 2e ef 30 3c 8f 06 8a bd
       -0.020612834 -0.021235002 0.010799212 -0.06739532
0000d0 f4 c3 dc 3d 71 e4 f9 bd 01 69 02 bc 78 6d 6e 3c
       0.107795626 -0.12201775 -0.007959605 0.014552467
0000e0 4e 8f 25 bd a4 0e 3e bd 49 63 63 3d 48 6b e3 3a
       -0.04041987 -0.04640068 0.055514608 0.0017350698
0000f0 5b 14 12 bd a5 4f 0b 3e 6b de 3b 3d ce 62 86 bd
       -0.035663944 0.136046 0.04586641 -0.06561814
000100 7f 43 95 3d 34 73 ec bd 8e fc 8a bd 7f d0 09 3d
       0.072882645 -0.11545411 -0.06786452 0.033646103
000110 03 6e 00 bd e4 fa de bc 05 d5 74 3d 13 56 08 bd
       -0.031354915 -0.027219243 0.059773464 -0.03328521
000120 0c 8c 35 3d 4f b8 c5 3b f6 18 74 bd 51 52 8b 3d
       0.044323012 0.006033934 -0.059594117 0.0680281
000130 43 66 ec ba c9 99 02 be 8b 96 53 3c 6c 54 cd bb
       -0.0018035847 -0.12753977 0.01291431 -0.0062661674
000140 35 67 af 39 48 7e c0 bc 8c 6f f0 3b d7 06 6e bd
       0.00033455496 -0.023497716 0.007337516 -0.05811199
000150 b6 2c a3 3c 68 8a 83 3d b1 50 71 3d b5 c7 07 bd
       0.01991878 0.06422883 0.058914844 -0.03314944
000160 2e 10 f7 b8 fe 57 7b bc 65 6d 70 3d 8a fa ba bc
       -0.000117808915 -0.015340803 0.058698077 -0.022824544
000170 9b 71 97 3c 3e 7a d9 3c f6 17 26 bd 19 51 f4 bd
       0.018486788 0.026547547 -0.040550195 -0.11929531
000180 fd a9 62 3d d8 c3 53 bd 33 82 78 bc 51 28 2f 3d
       0.055337895 -0.051700443 -0.015167761 0.042763058
000190 e7 47 b2 3c 47 86 8a 3c 48 f0 90 3d 1c 82 04 bd
       0.021762801 0.016909732 0.0707708 -0.032350644
0001a0 00 c0 78 3d 9d 06 8b 3d 4d 34 2c 3d 36 2c 30 3d
       0.06072998 0.06788371 0.042042065 0.043010913
0001b0 ff 8d 08 bd 84 18 cc 3d 57 a8 db bc 7b 6f 6e 3c
       -0.033338543 0.099656135 -0.02681367 0.014552946
0001c0 57 da 1b 3c ed 70 fb 3c 83 f6 0b 3d c7 5f 3f 3d
       0.0095125055 0.030693496 0.03417064 0.0467222
0001d0 69 fa 00 bd ab 9a 75 3d b8 5b 6b bc 5d dd dd bc
       -0.03148881 0.059961956 -0.014365129 -0.027083093
0001e0 70 ac 3a 3d 4c 9a 4a 3d a2 46 20 3d 54 ba 19 3c
       0.045574605 0.049463555 0.03912986 0.009382803
0001f0 40 a9 85 bc fa a8 80 bd 05 5e 06 3d a7 80 01 3d
       -0.016316056 -0.0628223 0.032804508 0.031616833
000200 91 b6 57 be d2 62 2a bb 83 89 57 bc 89 14 dc bc
       -0.21065737 -0.0025998843 -0.013155344 -0.02686526
000210 ca 02 0f 3b 81 6e a0 bb 3a 76 58 3d f6 79 0c be
       0.002182173 -0.0048959856 0.052847125 -0.137184
000220 49 ac 30 3d 0c 4e b9 3d 77 e2 06 bd e5 3b 66 3c
       0.043133054 0.090480894 -0.032930817 0.014052366
000230 4e 13 6a 3d d2 b3 07 3d e2 9d 25 3d ab e8 98 bd
       0.057147317 0.033130474 0.040433772 -0.07466253
000240 9a 13 8a bd 0f 92 a1 bd 47 6a d7 bb e0 26 78 bd
       -0.0674202 -0.078891866 -0.0065739485 -0.06058395
000250 88 05 33 3d c9 5d 63 bd d2 7a e2 3b 7c 67 57 3b
       0.043706447 -0.055509362 0.006911614 0.0032868078
000260 9a 95 59 ba 5a a0 5c bd e9 60 0a bd e1 18 0a 3c
       -0.00083001854 -0.05386386 -0.033783827 0.008428783
000270 4e a3 19 3d e3 44 6b 3d 6e 93 11 3d 54 ed 10 3c
       0.037509255 0.057438742 0.03554099 0.008845646
000280 eb e2 66 3d af d3 22 3d 5e 99 05 bc 40 0c 08 3d
       0.05636875 0.03975266 -0.008154241 0.033214808
000290 3a 85 b6 bc 66 6f b6 3d 8d 1d 87 bd e4 26 72 3d
       -0.022280324 0.08907966 -0.06597433 0.05911912
0002a0 b7 00 ea 3d fa 38 8b bd 3d 3e df bd da 80 00 3e
       0.114259176 -0.06797977 -0.10900543 0.12549153
0002b0 24 aa a8 3d f1 ab 0b 3d 96 3c b5 3d fc f7 19 3d
       0.08235577 0.034099523 0.088494465 0.037590012
0002c0 77 da 1e 3b 8b 1d 21 be 98 97 59 bc ec 40 69 3c
       0.0024239102 -0.15733926 -0.013280772 0.01423667
0002d0 dc ab 5f bd cc b4 0b bd 89 e2 79 bd a2 ce 59 3d
       -0.054607257 -0.03410797 -0.061007056 0.053175576
0002e0 c9 9d c7 bc 6e 94 1e 3c 47 b7 45 bd dd 77 44 bd
       -0.02436723 0.009678943 -0.04827049 -0.047965873
0002f0 a5 a3 c0 3d a1 dc 8e 3d ca d4 6a bb 94 19 f0 3a
       0.09406213 0.069756754 -0.0035832399 0.001831817
000300 e8 9e 44 3c ac 76 b8 3a 64 76 c4 3c bb f4 3a bd
       0.012000777 0.0014073453 0.023982234 -0.04564355
000310 3a e1 c1 bc c8 48 2d bd 9f 7e 09 bc a6 3d b5 bb
       -0.023666967 -0.042305738 -0.008392005 -0.0055310307
000320 dc cf 17 3c be a8 b3 3d 5d de 9d 3d 16 ae 10 3c
       0.009265866 0.087724194 0.07708428 0.008830568
000330 d7 bd 09 bd a7 bd 96 3d 54 0d f8 ba 6f e4 b9 bd
       -0.03362831 0.07360392 -0.001892487 -0.090767734
000340 38 42 5b bc f2 fb 81 3d 72 c5 0d bd aa c6 53 3d
       -0.013382487 0.06346883 -0.034612127 0.051703133
000350 b3 f0 fb bc 0a 0a 3a 3d 36 f8 4b 3d ce e5 9c 3d
       -0.030754423 0.04541973 0.04979726 0.07661019
000360 02 fc 09 bb be 24 f6 bc d6 7d 1d bd 98 0b 8e bd
       -0.002105475 -0.030046817 -0.038450085 -0.06935805
000370 7d 69 9d bc 66 d9 9b 3d 8b 32 8d bb 6f 9f b4 3c
       -0.01921534 0.07609825 -0.0043090037 0.02204868
000380 9c e8 2a bd f5 10 76 3d 5c ae 18 3d d9 f9 61 bd
       -0.04172574 0.060074765 0.037275657 -0.055169914
000390 c2 fb 93 bb 0b 28 10 be bc 56 9a 3c 8e 69 27 3d
       -0.004516096 -0.14077775 0.018840186 0.04087215
0003a0 bc fd 9d bd 0a 39 15 bd 7a 36 74 bc ee 9e b1 ba
       -0.077144116 -0.03643135 -0.014905566 -0.0013551393
0003b0 f5 ac fc 3c fe 75 5d bd 52 96 42 3d 22 76 b5 bd
       0.030844191 -0.054067604 0.047506638 -0.08860423
0003c0 81 fa d0 bd 93 a6 a1 3c 7b f5 3d 3c 71 7d 0e be
       -0.1020403 0.01973275 0.011594172 -0.1391504
0003d0 5b be d8 3c c1 55 0e be 71 3a 8d 3d 92 7e 88 3d
       0.026457956 -0.138999 0.068959124 0.06664766
0003e0 14 92 89 bd dc 4f ad 3d 41 9b a7 3c 6a 4f c9 3d
       -0.06717315 0.084624976 0.020459773 0.098296
0003f0 80 f1 82 bd aa 00 2b 3d 84 74 e2 3c eb 62 ba 3b
       -0.06393719 0.04174868 0.02764345 0.0056880615

convs.1.lin_r.weight f4 [256, 256]
000000 d6 4e df ba 8b d6 10 bc e4 96 15 3b 9e 28 77 bd
       -0.0017037045 -0.0088402135 0.0022825534 -0.06034147
000010 67 ce a5 3c 2f fb 42 3d 83 74 fd bb a6 81 ae 3d
       0.020240022 0.04760283 -0.0077348365 0.08520822
000020 64 c4 e5 3c 78 ef 83 3d b9 1c fe bc f6 a2 cd 3c
       0.028047748 0.064421594 -0.031019555 0.02510212
000030 17 36 b6 3d 9f 76 82 bc 19 6e 83 3d ef 5b 97 bd
       0.088970356 -0.015925704 0.06417484 -0.07390582
000040 45 4e 08 3d 1a ff 6d 3d 50 bb 66 bc e9 2a 6d 3d
       0.03327777 0.058104612 -0.014082745 0.05790225
000050 3b 4b 37 3c 56 92 5e 3d 4b c1 25 bd 31 f4 69 3d
       0.01118737 0.054338776 -0.04046754 0.057117645
000060 1f 75 97 3b e0 97 6a bc 80 8f 23 3d ed d0 19 bd
       0.004622116 -0.014318436 0.039931774 -0.037552763
000070 e0 db 4c 3d 40 e5 29 3d 91 e5 b5 3c 9a 9c 33 bd
       0.050014377 0.041478395 0.022204192 -0.04385052
000080 e5 ff 5e 3c 22 7e d5 3b 0b 41 ad 3d 68 ab 64 3d
       0.013610815 0.0065152803 0.084596716 0.05582753
000090 c1 be ea 3c ce 0b 53 3d 72 31 88 3c 37 c9 36 3c
       0.028655412 0.05152493 0.01662514 0.011156372
0000a0 46 d2 58 bc ec 37 93 3d 20 89 4b bd 5b 63 88 3d
       -0.013233727 0.071884006 -0.04969132 0.066595756
0000b0 30 d6 46 bc 87 32 83 3d 51 e1 56 3d d7 c7 82 bd
       -0.012136027 0.06406122 0.052460972 -0.06385773
0000c0 ea 54 c9 3c 9d 7d 81 bc 85 90 5a 3a fa 97 e9 bc
       0.024576623 -0.015806967 0.0008337575 -0.02851485
0000d0 a0 88 d3 3d 1a 38 f1 bd e0 26 19 bc 2c 57 dc bc
       0.103287935 -0.11778279 -0.009347647 -0.026897036
0000e0 14 22 d4 bc 0d 57 04 bd 13 9f c4 bc dd 1a 8d bd
       -0.025895156 -0.03230958 -0.024001634 -0.068898894
0000f0 ff 12 12 bd 88 42 ca 3d 96 72 47 3d 56 aa 20 bd
       -0.035662647 0.09875971 0.048693262 -0.039224945
000100 33 60 9a bc 33 3c 87 bd 50 d9 46 bd ac ad 26 bc
       -0.0188447 -0.06603279 -0.04854709 -0.010173243
000110 b7 aa 9f bc a2 d1 26 3c 72 3b 16 3c 6d 7d 21 3d
       -0.019490583 0.010181816 0.009169446 0.039426256
000120 24 fa 90 bd b1 11 e7 3c 1e 9a a5 3c cf bb b5 bc
       -0.070789605 0.028206678 0.02021509 -0.02218428
000130 39 05 5b 3c d9 c7 81 bd bf 7a aa 3d a7 c3 a5 bd
       0.013367944 -0.06336946 0.08324193 -0.08093958
000140 37 05 25 bb 77 21 80 bc 31 77 d7 3c 93 64 47 bd
       -0.002518011 -0.015640957 0.026301952 -0.0486799
000150 a4 06 b8 3d 99 cb e4 3c 46 5f 55 3d b0 08 80 bd
       0.089856416 0.027929114 0.052092813 -0.06251657
000160 10 f0 11 3d 3a db 71 3c b9 32 0d bb ea d9 5c bd
       0.035629332 0.01476174 -0.0021545126 -0.053918757
000170 29 ed bf bb f8 13 91 3d b9 f9 8a 3c 23 68 57 bc
       -0.005857129 0.07083887 0.01696478 -0.013147387
000180 30 57 b4 3d 40 5f 57 bc 46 cf 04 3c 40 e1 66 bd
       0.08805692 -0.013145268 0.008106058 -0.05636716
000190 7f 8e ef 3c db eb 7b 3d dc 29 1f 3d 51 1a c7 3c
       0.029242752 0.061504226 0.03885828 0.02430454
0001a0 40 96 07 3c c9 26 b7 3a a5 80 13 3c 2c b4 30 3d
       0.0082755685 0.0013973351 0.009002839 0.043140575
0001b0 0e 76 99 bd 7e 8b 3b 3b fd 49 e0 3c e4 28 f6 bb
       -0.0749322 0.002861708 0.02737903 -0.0075121988
0001c0 ba 58 0a 3c 1e 81 53 3d 26 29 65 bd a1 0c ef bb
       0.008444006 0.051636808 -0.055947445 -0.0072952067
0001d0 51 71 7c bd f2 d5 b4 3c 06 84 b8 3c 39 0a 72 3d
       -0.061631504 0.022074673 0.022523891 0.05909178
0001e0 18 1c 18 3d 37 21 52 3d 04 b8 44 bc b6 0f 95 bd
       0.037136167 0.051301207 -0.012006763 -0.07278387
0001f0 f9 ec 61 bd 44 d0 1b 3d 24 ab c5 bb f6 21 bb 3d
       -0.055157635 0.038040414 -0.0060323644 0.09137337
000200 42 d3 6c bd 37 9b c2 3c fb 43 59 bb e6 04 35 bc
       -0.05781866 0.023755653 -0.0033152092 -0.011048531
000210 38 25 b8 bd 13 84 36 bd 5d da db bb 1c 4d fc bd
       -0.08991474 -0.04455955 -0.0067093805 -0.12319395
000220 f7 e7 9c 3d 04 12 27 3c 56 bd 88 bd 72 c7 78 bd
       0.07661431 0.010197166 -0.06676738 -0.06073708
000230 4c dd 7c 3d 61 49 e9 bc 46 35 cd bc bc 1b a3 bd
       0.061734483 -0.028477373 -0.025049817 -0.07964274
000240 3d 84 d6 3c b7 46 90 bb 02 da aa 3c 66 23 12 3d
       0.026186103 -0.004402961 0.020855907 0.03567829
000250 f9 d1 8a 3d 20 5f d3 39 da a5 96 bd e0 4e 3d 3d
       0.0677833 0.0004031593 -0.073558524 0.0462178
000260 6f 6f f2 3c 87 c6 76 bd 24 03 66 bc e0 35 fd ba
       0.029594151 -0.060247924 -0.014038835 -0.0019318424
000270 b8 e3 5c 3d 36 68 13 bd 61 89 a5 3d cc d5 ca bc
       0.053928107 -0.035988055 0.080828436 -0.02476015
000280 51 5a 6b 3d e0 a2 92 3d 67 6e 0e 3d 40 50 7f bc
       0.05745918 0.07159972 0.034773257 -0.015583098
000290 62 98 8b bc 0b d0 de bc 0b 90 3f bd db 81 dc bc
       -0.017040435 -0.027198812 -0.04676823 -0.026917389
0002a0 45 89 ed 3c af 29 01 3c c9 80 dc bc af aa f6 3c
       0.02899612 0.007883473 -0.026916878 0.030110685
0002b0 21 8a 01 3d cd cf f8 3c 37 2e a7 3d a3 c7 e8 b9
       0.03162587 0.030372525 0.08163112 -0.0004439923
0002c0 d0 d8 5f bd a0 ca a9 bd 72 ff c8 bc 26 8a ab bc
       -0.054650128 -0.08290601 -0.024535868 -0.020939898
0002d0 22 ba f1 bc 05 ff 75 3c d5 49 6a bd 9f a2 92 bd
       -0.0295077 0.015014415 -0.057199318 -0.07159924
0002e0 a5 67 bd 3a 13 4f 9c bc a6 e8 b5 bc aa 78 17 3d
       0.0014450444 -0.019080674 -0.022205662 0.03698031
0002f0 a1 15 6a 3d 84 d9 06 bd e5 da 05 bd cf 05 80 bc
       0.057149533 -0.032922283 -0.032679457 -0.01562777
000300 d5 ee 1a 3d 5b 50 47 3b 54 d1 d3 3c ec 32 0a 3d
       0.037825424 0.0030412886 0.025856651 0.03373997
000310 4c c7 09 3d b5 c4 86 bd da 5f 25 bd c0 51 0b bd
       0.03363733 -0.06580488 -0.040374614 -0.03401351
000320 6a f1 ed bc c7 ab d0 3c 25 e8 87 3c 93 c0 5b 3d
       -0.02904578 0.025472535 0.016590187 0.05365045
000330 88 73 c6 bd 22 e5 22 bd 05 51 d5 3c 51 d1 c8 3c
       -0.096900046 -0.0397693 0.02603961 0.024513872
000340 cb 66 fb 3c a0 ad d4 3c 59 3b a6 bd 59 81 4b 3d
       0.030688664 0.025961697 -0.081167884 0.049683902
000350 a1 ce 56 3d e3 ae a3 3c b4 00 3e 3d 64 22 29 3c
       0.05244315 0.019980853 0.04638739 0.010323141
000360 a8 7b ce bc cb 7f 5d bd de a0 f1 bc 5a 73 26 3d
       -0.025205448 -0.05407695 -0.029495653 0.04063735
000370 bb 21 93 bc 9f 77 8a 3b b6 8a 40 3d 27 02 58 bd
       -0.01796042 0.0042256857 0.047007285 -0.052736428
000380 bb 63 76 bd fd dc b4 3c 38 fe 7c bd 1d b0 c7 bd
       -0.060153704 0.022078032 -0.06176588 -0.09750388
000390 3a c0 ee bc d1 93 18 bd 20 05 e6 bc 5c b9 9d 3d
       -0.029144395 -0.037250344 -0.028078616 0.0770137
0003a0 2e 62 c0 3c 2d 8c 27 bc 8b ce 48 bd cd 79 f5 3c
       0.023484316 -0.010226292 -0.0490251 0.029965306
0003b0 fd 8a e7 ba 0c 93 14 bd 23 3c 2a bc 4e 3a cf 3c
       -0.0017665323 -0.036273047 -0.010390314 0.025296357
0003c0 72 19 4c bd e5 22 97 bc 6f c6 8e 3d 76 7f 9c bd
       -0.049828954 -0.018449256 0.06971442 -0.07641499
0003d0 06 26 06 bc a1 78 4b bd c3 92 57 3d 54 95 07 bb
       -0.008187776 -0.049675588 0.052630197 -0.0020688372
0003e0 cb 94 20 bd 5c 13 8a 3b 01 6a 3c 3c cc 22 79 3d
       -0.0392044 0.0042137336 0.011499883 0.0608242
0003f0 bd 44 a1 bc 02 99 8d 3c 8b 33 8d 3c 63 e1 75 3d
       -0.019686097 0.017284874 0.017236492 0.0600294

convs.2.lin_l.weight f4 [40, 256]
000000 96 0e 15 3c ac ff 99 bd ed 1d f9 3c fc 42 42 3d
       0.009097716 -0.07519469 0.030409778 0.047427163
000010 46 96 f5 ba 96 0c 64 3a 09 22 07 3d 72 02 fb 3c
       -0.0018736802 0.0008699385 0.032991443 0.030640814
000020 74 69 82 bb 1c fe 53 3d 00 66 2a bd ce 03 17 be
       -0.003979856 0.05175601 -0.04160118 -0.14747545
000030 96 06 c0 bc 14 c4 d4 bc 30 0f be 3b 1f c5 58 3d
       -0.02344064 -0.025972404 0.0058001503 0.052922364
000040 ad 83 30 3d 50 17 e5 bc a1 8d 1f 3b 9b 04 22 bd
       0.043094326 -0.027965218 0.0024345892 -0.039555173
000050 0f ca 24 bc 8b 23 1d be cf 30 b0 3b d4 15 03 bc
       -0.01005794 -0.1534559 0.005376912 -0.00800081
000060 ce 5e a8 bd f0 3d d9 bb 5e cf 90 bd 61 4f b4 bd
       -0.082212076 -0.006629698 -0.07070802 -0.08804203
000070 b5 40 40 3d 8b c9 b1 3c 6a 1b 80 3c d9 02 02 3c
       0.04693671 0.021702548 0.015638072 0.007935249
000080 e7 01 93 3d 4c 99 30 bd 32 3f 06 bd 2a e6 2d bd
       0.07178097 -0.043114945 -0.03277511 -0.04245583
000090 4a 16 45 3c a4 7f 6f bc 9b c8 0e 3d ff 14 24 bc
       0.01202924 -0.014617834 0.03485928 -0.0100147715
0000a0 5c c7 10 bd 65 2a 58 3d 13 e6 33 3c 79 35 ab 3d
       -0.035346374 0.052774806 0.010980147 0.083598085
0000b0 38 94 9b 3d c6 07 13 3d 70 c3 23 3d 37 62 5c 3d
       0.0759663 0.035896085 0.039981306 0.053804602
0000c0 79 ea 02 be d7 74 ee bc 31 2f e0 3c 35 94 b0 bd
       -0.12784757 -0.029108448 0.027366253 -0.08622018
0000d0 4e 95 bb 3c 2b 98 f7 bd b7 30 e8 3c 28 66 72 bd
       0.022898342 -0.120895706 0.028343542 -0.059179455
0000e0 e6 a6 12 be a7 fd 4a bd 44 8d 9c bc 27 f6 bb 3d
       -0.14321479 -0.049558308 -0.01911033 0.09177809
0000f0 24 55 cb bd 7b 36 c3 bb d2 ef b2 bd a1 be eb bd
       -0.09928349 -0.0059574223 -0.08737148 -0.11510969
000100 dc bc dd bc a8 94 27 bd 0c da 35 3d f5 da 25 3c
       -0.027067594 -0.040913254 0.0443974 0.010123004
000110 2d cb c3 bc 96 4a 52 bd c1 3b 01 be d5 72 14 be
       -0.023900593 -0.051340662 -0.1262045 -0.1449693
000120 6f 69 61 bd 5c fd a7 b9 25 52 48 3d 24 28 88 3c
       -0.05503219 -0.0003204149 0.048906464 0.016620703
000130 14 8a e1 bd d9 41 cc bd ef cb 62 bc e8 e1 a2 39
       -0.110126644 -0.09973497 -0.013842567 0.0003106736
000140 0c cd 99 3c 40 0d 30 3d a6 b4 3b be b1 2b 81 bd
       0.018774532 0.042981386 -0.1833063 -0.063071616
000150 b7 04 d9 bd 11 67 07 3d 18 f6 4c bd a8 a2 ab 3d
       -0.105966024 0.033057276 -0.05003938 0.083806336
000160 aa cb 3a bd 34 a7 dd bd 7b a0 7c 3d 28 b2 dc bd
       -0.045604385 -0.10822907 0.061676484 -0.10776168
000170 59 57 9f 3d 25 a6 a2 3d 6e cf 84 bd 30 22 3f bd
       0.07780332 0.07941846 -0.064848766 -0.046663463
000180 dc 7f d7 bd 58 4d 75 3c fb ba 8e ba bb ea 35 3d
       -0.10522434 0.0149720535 -0.0010889465 0.04441331
000190 78 e3 bf bd 35 b0 03 be 3f c1 f7 3d 64 34 09 3d
       -0.09369558 -0.12860186 0.12097406 0.03349723
0001a0 5f 0a 9c 3c 4e 9d f5 3c 12 5d eb bb 48 b7 67 bb
       0.019047914 0.029982235 -0.0071827257 -0.0035357047
0001b0 3c 65 1d be e7 5e 0c b8 79 89 58 bc 75 3b e5 bb
       -0.15370649 -3.3466986e-05 -0.01321637 -0.006995613
0001c0 2d da 51 3b 32 39 91 bd 52 87 f4 bd 3a ea c3 bc
       0.0032020912 -0.07090987 -0.11939873 -0.023915399
0001d0 2b 56 e7 bd dc b5 a1 bd b8 98 1c bc bf 3c 0c 3d
       -0.11295732 -0.07896015 -0.009557895 0.03423762
0001e0 d0 e4 f0 bd 6a 30 0e 3c 5c d3 2d bd 1d 03 ca bd
       -0.117623925 0.008678535 -0.042437896 -0.09863875
0001f0 2a d8 92 bd 5f 9f f5 3c 23 f2 8e 3d 66 18 16 be
       -0.07170136 0.02998322 0.06979778 -0.14657745
000200 3b f7 99 bc 24 bb 77 bd 8d f0 c1 bc 42 04 87 bc
       -0.018794646 -0.060481206 -0.023674274 -0.016481522
000210 2f 3b 18 3e d0 c0 33 3d 0b 3e 09 3e e5 c2 f9 bd
       0.14866327 0.043885052 0.13402574 -0.12195376
000220 a4 9c 2e bd 45 4d 9b 3d 63 45 4d 3d f5 e9 15 bd
       -0.042629853 0.07583097 0.050115 -0.036600072
000230 e2 7e 25 bd 81 6b fd bd 10 b8 38 be b4 82 6c bd
       -0.040404208 -0.1237402 -0.18038964 -0.057741836
000240 f4 2d f4 bb 82 1f d1 bc 9a 55 89 bd 63 74 d3 bb
       -0.007451767 -0.02552772 -0.0670578 -0.0064530834
000250 ba 46 e6 3d 06 e8 e8 3c 4a 1b 4e bb 0c 03 fb 3b
       0.11243959 0.02843095 -0.003144937 0.0076602753
000260 44 ea 63 bd 45 ff 7d bd 11 24 9e bd b6 5d 50 bd
       -0.055643335 -0.062011022 -0.07721723 -0.05087062
000270 c4 0c 10 3b 10 d3 b0 bc 55 fd 09 bd 14 a0 2f 3d
       0.0021980265 -0.021585017 -0.033688862 0.04287727
000280 d0 57 b2 bc f2 9b 5e 3d 3b 59 f1 3c d8 9c bc bc
       -0.021770388 0.05434794 0.029461494 -0.023024008
000290 c2 14 c8 bc b6 29 94 3c 08 c9 18 be 86 ae e2 3d
       -0.02442396 0.018086296 -0.14920437 0.11068444
0002a0 03 c4 d4 bd 6d 1c 1b bd 89 86 30 bd 39 3b 23 3d
       -0.10388949 -0.037868906 -0.043097053 0.0398514
0002b0 d7 76 cb 3d 0b fe be 3c a4 ea 29 bd 62 65 3f 3b
       0.09934776 0.023314497 -0.041483536 0.0029204716
0002c0 c2 29 e8 bd 58 14 1d 3d ac 87 26 bd 59 51 a3 3d
       -0.1133609 0.03834948 -0.04065673 0.079745
0002d0 4d ca a2 3d 29 1a 19 be 4e 48 00 bc 73 34 03 3d
       0.07948742 -0.14951386 -0.007829739 0.03203244
0002e0 63 57 02 bb 92 a2 09 bd 4a ce 83 3c 6e 5f 17 be
       -0.0019888512 -0.033602305 0.016089577 -0.14782497
0002f0 42 27 72 be 73 eb a3 bd 07 56 37 bd c4 5f 7b bd
       -0.23647788 -0.08003893 -0.044759776 -0.061370626
000300 78 cf 65 bd 94 10 4b be 53 9f 3b 3d 55 76 d4 bc
       -0.05610606 -0.19830543 0.04580624 -0.025935331
000310 c9 c6 3f 3c 09 29 bf 3b c0 c9 2f 3c 23 d7 1b be
       0.011705109 0.005833749 0.010729253 -0.15218787
000320 09 f2 23 3d ce e9 6d bd 69 24 1b bc 81 d9 81 bd
       0.040025745 -0.0580843 -0.00946913 -0.06340314
000330 62 48 86 bd 00 71 41 3d 21 bf 1d bb 56 6b b0 bc
       -0.06556775 0.047226906 -0.002407022 -0.021535557
000340 63 d7 6c bd 2e 8b a8 3c fd 17 26 be 26 63 a7 3d
       -0.057822596 0.020574179 -0.16220088 0.08173208
000350 e2 1a 00 bd b6 f3 26 3d 6c 87 1e 3d b5 d2 68 bc
       -0.031275637 0.040759765 0.038703367 -0.014210393
000360 be 0b 57 bd c7 1b 53 be d2 e6 89 bc 2b bb cf bd
       -0.052501433 -0.20616065 -0.016833697 -0.10143121
000370 b0 c6 cd bd 15 36 04 be c0 ff 14 bd ce 71 0b be
       -0.10047662 -0.12911256 -0.036376715 -0.13617632
000380 28 47 2f 3c 04 03 f9 3d c1 af d1 bd 04 95 f0 bd
       0.010698117 0.12158778 -0.102386005 -0.117471725
000390 fd d6 ee bb 9e 73 73 bd 6c 0c a3 3c 60 8e 4d bd
       -0.007288812 -0.059436433 0.019903384 -0.050184608
0003a0 e5 d4 ba 3d ca 96 07 be 97 20 ea 3c f9 dd a7 3d
       0.09122638 -0.13241115 0.028579993 0.08196635
0003b0 0e f1 70 3c 5d b9 ce bc 10 f7 20 3d d7 d9 67 3d
       0.014705909 -0.025234872 0.039298117 0.056604233
0003c0 df 2d 1b bc 8a c1 90 bc 35 1b dd bc a5 a6 06 be
       -0.009471386 -0.017670412 -0.026990512 -0.13149507
0003d0 b9 bb 67 3d d9 a4 d8 bd 7e b5 9b 3d 93 9b 10 3d
       0.05657551 -0.10578317 0.07602976 0.035304617
0003e0 3e 56 0f be ea fb 89 bd 8a 19 8a bd f9 c7 09 3b
       -0.13997743 -0.06737502 -0.067431524 0.0021023734
0003f0 8e ab 0e bc f0 02 65 3d 89 79 b3 3d 9c 0b 0c be
       -0.008707894 0.055911005 0.08763415 -0.13676304

convs.2.lin_r.weight f4 [40, 256]
000000 c5 22 09 3d a6 bd af bd 1c b5 1f 3d 94 ff 76 3d
       0.033480424 -0.085810944 0.03899108 0.060302332
000010 9c 3f ee 3c ce e3 3e 3c 43 57 31 3d 6b c9 f2 3c
       0.029083066 0.011650993 0.04329611 0.02963706
000020 58 47 f9 bb 8d 20 81 3c 93 39 6f bd 52 cf e0 bd
       -0.007607382 0.015762592 -0.058404516 -0.10977043
000030 63 5a e9 ba ae 7c b1 bb ba d3 2f bc 2b 1b 31 3a
       -0.0017803427 -0.0054164743 -0.010731632 0.00067560625
000040 70 e3 01 3d 79 12 67 3d d4 06 1c 3c a1 fd 98 bb
       0.031711042 0.0564141 0.009523112 -0.004668907
000050 37 3e dd 3c d1 94 b0 bd 08 75 39 3c 12 0d bb bc
       0.027007205 -0.086221345 0.011319406 -0.02283338
000060 c9 ea ca bc 03 49 4d 3c a6 cd 35 3d 6c 67 8a bc
       -0.024770157 0.012529614 0.044385575 -0.016895019
000070 ee 7c 34 3d 02 3a 48 3d a1 03 4d 3d 22 4a 21 bd
       0.044064455 0.048883446 0.05005229 -0.03937734
000080 f9 e8 8a 3d c1 46 c3 bc 5c 38 bb 3b ee 3e 39 3c
       0.06782717 -0.023837449 0.0057135057 0.0113065075
000090 d8 32 ee 3c 9c b1 d9 3c e3 29 a3 bc 58 ea 9d bc
       0.029076979 0.026573949 -0.019917434 -0.019276783
0000a0 f4 e1 4a 39 96 06 b8 3c 2b 65 a0 3c 1f 83 93 3d
       0.00019348395 0.022464078 0.01957949 0.07202744
0000b0 83 91 04 3d 7a c0 fa 3c cf 2d d0 3c 71 f4 91 3c
       0.032365333 0.030609358 0.025412468 0.017816754
0000c0 64 bb 3c be 51 d0 1c bd 76 09 b0 bd a2 a4 69 bd
       -0.18430859 -0.038284604 -0.085955545 -0.05704177
0000d0 a4 82 0a 3d da b0 64 bd f0 40 b9 bc 58 10 ec bb
       0.033815995 -0.05583272 -0.022613972 -0.0072040968
0000e0 dc ae e2 bd c9 d0 c0 bd e7 69 2f 3d 61 73 1d 3d
       -0.11068508 -0.094148226 0.042825606 0.038440112
0000f0 81 f0 b6 bd 33 24 49 3a 20 dc d7 bd f6 a7 93 bd
       -0.08932591 0.00076729356 -0.105400324 -0.072097704
000100 4c 74 95 bc b7 97 70 bd 39 c1 28 3d 46 25 ae bb
       -0.018243931 -0.058738437 0.041199896 -0.005314502
000110 0d 54 11 bd 72 fb e0 bb ea 15 18 bd 84 6c 50 bc
       -0.035480548 -0.006865912 -0.037130274 -0.012721185
000120 a9 c8 c6 bd 4f 1f 48 3d e7 31 47 3d 5d 70 58 3c
       -0.09706242 0.048857983 0.048631575 0.013210383
000130 57 59 10 3b 41 91 0e bd e9 86 3a 3d 58 89 82 3d
       0.0022025907 -0.034806494 0.045538817 0.063738525
000140 fe a0 8f 3d a9 1c 3b 3c ab 32 3d be 9f a2 45 3a
       0.07013129 0.011420407 -0.1847636 0.0007539186
000150 ec 74 7d bd f6 e4 4d 3d 5f ba 6c bd a0 82 3e 3c
       -0.061879084 0.050267182 -0.057794925 0.011627823
000160 7f 04 17 bd 3c d3 56 3b cd 85 2d 3d 2b 4c 25 bd
       -0.036869522 0.0032779714 0.04236393 -0.040355843
000170 24 f9 09 3d 84 d1 49 3d b1 e2 3a bd d4 a1 4e 3c
       0.033684865 0.049272075 -0.045626346 0.012611825
000180 e9 d4 68 bd ac 45 ad 3c 59 81 10 3d 34 fd d6 3c
       -0.056843672 0.021151386 0.035279606 0.026243784
000190 a6 4b 04 be ad 27 00 be 6b d3 99 3d 1c 84 2f 3d
       -0.12919483 -0.12515135 0.07511028 0.0428506
0001a0 d8 39 7b bc 5f 3a a9 3c 44 4c 4f 3d f8 59 ef 3c
       -0.015333615 0.020657716 0.050609842 0.029217705
0001b0 3f 64 b6 bd 89 4a 0e 3d ee 06 5e bd 95 cc 3d bd
       -0.08905839 0.03473905 -0.054205827 -0.046337683
0001c0 c6 b8 88 bd ee 77 9d bd 43 79 1a be 2c c7 78 3d
       -0.06675868 -0.076888904 -0.1508532 0.06073682
0001d0 69 db 6f bd d3 6e 64 bd 86 9b 50 3d 3a 88 e8 3c
       -0.058558855 -0.055769753 0.05092957 0.02838527
0001e0 b1 70 9d bd ee 5c 36 3d e4 14 d5 bb 79 86 04 be
       -0.0768751 0.04452222 -0.0065027345 -0.12941922
0001f0 e2 99 c2 bc e4 aa 39 3d 53 fa b8 3d 6e 96 ee bd
       -0.023755018 0.04532899 0.090321206 -0.11649786
000200 d4 4f 19 3c c5 33 44 3c 93 e9 ea 3c d8 bd 4a bc
       0.009357411 0.011975233 0.02867583 -0.012374364
000210 86 47 97 3d d6 b0 65 3d 57 20 d2 3d f8 4a 1a be
       0.07386689 0.056076847 0.102600746 -0.15067661
000220 71 59 f6 bc 4d 1c e4 3c 88 f0 b1 ba 91 73 8f 3c
       -0.030071946 0.027845526 -0.0013575712 0.017511161
000230 ec e2 7f bd 6a bf d8 bd ca e7 4d be 55 22 4a bd
       -0.06247227 -0.10583384 -0.20107952 -0.049349148
000240 d9 a6 89 bd 63 4c 90 3d d9 89 92 ba 6d 9c 05 bd
       -0.06721277 0.070458196 -0.0011179998 -0.032619882
000250 9d 29 6f 3d 2d 0f 0d 3d 96 89 e8 bc 69 b9 46 bd
       0.058389295 0.0344383 -0.028385919 -0.048516665
000260 fb bb 65 b9 9e fe 08 3d b8 c6 22 be f5 05 86 bb
       -0.0002190917 0.033445947 -0.15896118 -0.0040900656
000270 35 c6 18 3d 89 28 8f bd d1 b1 89 3b ba e8 3e bc
       0.0372984 -0.06990153 0.0042021056 -0.011652166
000280 99 76 7c bc 1e 5f 2e 3d be 80 c9 3c 80 7b 0a bc
       -0.015409135 0.04257118 0.024597522 -0.008452296
000290 ea 68 3b bd 4d 73 fc 3c 76 d9 e7 bd 46 10 94 3d
       -0.04575435 0.030816698 -0.11320774 0.072296664
0002a0 e9 3d 29 3c 75 60 40 3d fa 48 c3 bc 10 ae 13 bd
       0.010329702 0.04696699 -0.023838509 -0.03605467
0002b0 a6 5b 0d 3d a6 41 85 3c 31 39 c5 bc 6f db 63 3d
       0.03451123 0.016266655 -0.024075123 0.05562919
0002c0 74 6d ea bc 68 ed 02 3d d8 ab a3 bb fe 48 fa 3c
       -0.028616644 0.03196469 -0.0049948506 0.030552384
0002d0 d2 74 9c 3d ae 3b c2 bd e2 20 11 3c e3 30 c6 3d
       0.07639469 -0.09484039 0.0088579375 0.09677293
0002e0 4e 47 bb 3c c1 27 44 3c 29 96 1d bd 41 2e d1 bd
       0.02286115 0.011972369 -0.038473282 -0.102139
0002f0 bd ea 19 be 6a e0 65 bd 91 8d 97 bc ad 7f c2 bd
       -0.15030952 -0.05612222 -0.018500121 -0.094970085
000300 9d b0 8c bb dd 7a 8c bd ba ab 9a 3d aa d9 33 bc
       -0.004293515 -0.06859372 0.075522855 -0.010977188
000310 f3 83 e7 bc 24 1a 2d bd 5a 82 a7 3d 4a 78 aa bd
       -0.02826116 -0.042261258 0.081791595 -0.083237246
000320 96 46 41 3c a5 ae d3 bc 3f 59 1b bc 73 ce e7 bc
       0.011796614 -0.025840113 -0.009481727 -0.028296685
000330 24 f8 98 bc de bc 90 bd dc 3f 77 bd cc 0e 4e bd
       -0.01867301 -0.070672736 -0.060363635 -0.05030708
000340 05 fe 3b bd 8c 41 0e 3d db 2a ac bd 05 c4 5c 3d
       -0.04589655 0.03473048 -0.084066115 0.053897876
000350 39 49 ea 3b 67 a8 d6 3a c3 46 08 3c 21 49 02 3d
       0.007149842 0.0016377092 0.008317652 0.031808022
000360 59 67 b0 bd e7 f2 3e be 99 2d ce 3c fb 6b 82 bd
       -0.08613462 -0.18647347 0.025168227 -0.06368252
000370 7e dc c3 bd 0c b8 d1 bd f9 f9 d7 3c 9d 53 8e bd
       -0.0956354 -0.10240182 0.026364313 -0.06949542
000380 89 79 f4 3c 6d 3a aa 3b c2 0c bc bd 3d f3 d8 bd
       0.029843109 0.005194953 -0.09182121 -0.10593269
000390 22 c6 80 3d c2 70 a5 bd 84 2d 53 3b 09 53 40 bd
       0.06287791 -0.080781475 0.0032223174 -0.04695419
0003a0 cc dd 43 3d bf 13 b5 bd e0 1f d7 3c 7a bd 85 3d
       0.047818944 -0.08841657 0.026260316 0.065302804
0003b0 40 52 2b 3c 94 af 68 bb 4c a1 2b bd 7c 06 80 3d
       0.010456622 -0.0035505043 -0.04190187 0.06251237
0003c0 5c 4a 21 bd ce b1 2e bd ca 32 bf bb 40 c5 16 3a
       -0.039377555 -0.042650037 -0.005834912 0.00057514384
0003d0 4b a5 94 3d 33 70 60 bd 55 65 b5 3c 22 97 13 3d
       0.0725809 -0.0547945 0.022143045 0.036032803
0003e0 3d 38 9b bd b1 7f c1 bd 47 9b 56 bd 39 ff a1 3d
       -0.07579086 -0.09448183 -0.052394178 0.07910008
0003f0 8f ac 6c 3d 04 c2 73 3c 96 b5 86 3d 8c 83 db bd
       0.057781752 0.0148778 0.065776035 -0.1071845
