models/ckpt/ogbn-arxiv-sage.NS.0.pt (torch, 871103 bytes, 6 tensors)

convs.0.lin_l.weight f4 [256, 128]
000000 fc e5 e9 bd 12 83 00 3e 60 21 0e 3c f0 19 d4 3c
       -0.11420819 0.1255 0.008674949 0.025891274
000010 1f 56 10 3d 41 fe c5 bc b8 36 51 bd 2e 29 0f 3d
       0.03523838 -0.02416909 -0.051077574 0.03495138
000020 2a fe 37 bd 29 0a 0a be e0 bb f5 3d 85 9b 31 bd
       -0.044920124 -0.13480438 0.11998725 -0.043361206
000030 d1 21 8d 3d a2 27 19 3d 17 e5 48 bd 15 01 ca bd
       0.068912156 0.037391312 -0.049046602 -0.09863488
000040 ce d7 9b bc dd 03 1e bd 22 23 02 be 50 db 30 be
       -0.019023802 -0.038577903 -0.12708715 -0.17271161
000050 23 57 24 bd 93 ec b5 3d 27 25 ab bd 8c be 10 bd
       -0.040122163 0.088830136 -0.083566956 -0.03533797
000060 26 64 14 3d 6b 19 c2 3d b5 56 7f bb 05 5a bb bd
       0.03622832 0.09477504 -0.0038961594 -0.09148029
000070 70 9a 71 bd 4c 1b 8c 3a 42 3b fe 3d 03 e2 02 bd
       -0.058985174 0.0010689287 0.12413646 -0.031953823
000080 92 54 b1 bd 16 82 e9 3c 21 ca 1b bd 3a 26 ad bc
       -0.08658709 0.028504413 -0.038034562 -0.021136392
000090 f5 f3 b5 3c 80 e7 cf 3d 73 26 a4 3d 34 1a 4c bc
       0.022211054 0.10151577 0.08015146 -0.012457419
0000a0 a3 b3 60 3d f6 36 42 3e fe 47 fd 3d c6 d4 8c 3c
       0.054858815 0.18966278 0.12367247 0.017191302
0000b0 96 c6 4b 3d 99 a3 7e bb 5d 88 f3 3d 28 7d 05 3d
       0.049749933 -0.0038854836 0.118912436 0.03259006
0000c0 3c 1e 23 bd d0 7d d0 bb 87 28 fe bc 2e 30 c0 bd
       -0.039823756 -0.0063626543 -0.031025184 -0.093841895
0000d0 01 46 df 3c ed 50 1b bd c8 a7 9e bd c5 9e 7a bd
       0.02725506 -0.037918974 -0.077468455 -0.06118657
0000e0 33 ca d5 bd 18 e3 57 3c 06 44 1d 3e 6f b0 d7 bd
       -0.10438957 0.013176702 0.1535798 -0.10531699
0000f0 71 da 56 bd 9b 02 6b 3c ad 83 74 3d 0e b5 4a bb
       -0.052454416 0.014343883 0.05969589 -0.003093067
000100 0a 5c 1d bd ee 44 ae 3c cd 0b 6a 3c ea 0f 83 be
       -0.038417853 0.021273103 0.01428504 -0.2559808
000110 83 79 f2 bd 78 00 73 3c a8 94 7c bd 5a f8 cc bd
       -0.11839583 0.014831655 -0.061665207 -0.10008307
000120 0b 1e c6 3c 0d d1 55 bd 21 ea 0e 3c 7a 89 45 3c
       0.024184247 -0.05220132 0.008722813 0.012056703
000130 0a 72 25 bd 12 a5 83 bd e9 b1 43 3c b5 f7 4c bd
       -0.04039196 -0.06427969 0.011944273 -0.05004092
000140 bc 7c 9e bd ae ec 22 bc 78 05 8e 3d d0 a5 4b 3d
       -0.07738635 -0.009944124 0.06934637 0.049718678
000150 37 37 0d be a9 5e 26 bd 06 cd 9b bd 4f 82 37 bd
       -0.13790594 -0.04061762 -0.076074645 -0.044802006
000160 86 f6 a1 3d a2 db c0 bd 9f 77 3c bd dd 27 04 bd
       0.07908349 -0.09416892 -0.046012517 -0.03226458
000170 b8 07 a5 3c 89 bd a9 bd 0c 69 ea bd 08 6f 3b bc
       0.020145282 -0.08288104 -0.11445817 -0.011440046
000180 cb d1 3f be fd 09 37 be b1 b4 4a bd 9a 49 ad ba
       -0.18732373 -0.17874904 -0.049488727 -0.0013220788
000190 7e 38 28 be 6f 18 85 3d ab 07 c0 3d f5 d0 54 3c
       -0.164278 0.06498801 0.093764625 0.012989272
0001a0 e0 4c 29 bd 8d d4 f8 bc 76 32 ed bd c9 9b c1 bd
       -0.04133308 -0.03037479 -0.1158189 -0.09453542
0001b0 5d ab 6d be 71 5d 0a 3d b3 db 99 bd 9e f1 32 bd
       -0.23209901 0.03378052 -0.075126074 -0.043687455
0001c0 f7 c0 dd bd 72 29 42 3c a4 94 76 bd df cf 8d bd
       -0.10827821 0.011850702 -0.06020035 -0.06924414
0001d0 a1 76 3e 3d ca af cb 3d 11 4b 86 3d 18 72 dc 3d
       0.046499852 0.099456385 0.065572865 0.10763949
0001e0 ba c9 12 3d a5 69 2c bd ba 0b 13 bd 3b 0c c4 3a
       0.035836913 -0.042092938 -0.035899855 0.0014957258
0001f0 67 fa b5 3d 51 e7 bf 3c 51 fc 99 3d 52 31 83 bb
       0.08885651 0.02342573 0.07518829 -0.004003682
000200 b5 56 b1 bd 74 3c 01 3c 86 5b 3e 3d 41 77 2b be
       -0.08659116 0.007887948 0.046474002 -0.1674471
000210 1a 60 e2 bd d7 20 b2 bd d0 d7 90 3d fc 4e 52 bd
       -0.11053486 -0.0869767 0.07072413 -0.051344857
000220 46 da 60 bb cf 11 12 3b ad b3 80 bc d6 d6 c6 bc
       -0.0034309789 0.0022288447 -0.015710676 -0.024272364
000230 ca 9c 87 bc 0c 20 0d be c3 7d 7e 3c 92 a8 b6 bd
       -0.016554255 -0.13781756 0.015532914 -0.08918871
000240 9b d2 6b bd af c4 1e bd b5 f4 92 3d 0d 45 6b bd
       -0.057573896 -0.03876179 0.071755804 -0.0574389
000250 9d 07 97 bd 23 aa 23 bd e2 5d 43 bd 6d d7 bf 3d
       -0.07374499 -0.039957177 -0.047696956 0.09367261
000260 a9 38 1c be 00 86 b1 3d 92 fb 10 3e 5c 54 ea 3c
       -0.15255989 0.086681366 0.14158466 0.028604679
000270 64 08 75 bd 76 22 4c bd 64 8b 17 bc 8b 69 c0 bc
       -0.059822455 -0.049837552 -0.009249542 -0.023487827
000280 45 89 f9 3d a3 4d ce bc 8a 70 45 bd db 63 4c bd
       0.12184385 -0.025183504 -0.04820303 -0.049899917
000290 c2 0e 9b bc 84 98 a0 3d 9d 7b 85 3d cc bb cb bd
       -0.018927936 0.0784159 0.06517718 -0.09947929
0002a0 f8 f8 d7 bd b8 54 95 3d 0c 99 9e 3d 45 16 8d 3e
       -0.10545534 0.072915494 0.07744035 0.27556053
0002b0 b8 03 8f bd 9d 62 24 bd 05 2f b0 bb 8c b0 8a 3c
       -0.06983131 -0.040133107 -0.005376699 0.016929887
0002c0 c8 58 5a bd 80 52 44 3c 76 a8 5a 3d 2e da f3 3c
       -0.053307325 0.01198256 0.053383313 0.029767122
0002d0 ae 1d 2e bd 9c 7c b6 3c e9 2d 5f 3d 8f 66 16 be
       -0.042508774 0.022276215 0.054487143 -0.1468756
0002e0 6e 79 20 3d b0 f3 b7 bd 16 35 12 3e 9f c1 25 3d
       0.039178304 -0.089820266 0.14278063 0.040467855
0002f0 d3 b9 34 3d d4 83 31 be 99 69 aa bc 9f 42 9e 3d
       0.04412253 -0.17335445 -0.020802306 0.07727551
000300 3d f7 ec bd 64 31 04 3d 45 35 8f bd c2 9a 62 bb
       -0.115705945 0.032273665 -0.06992582 -0.0034577106
000310 80 5b e6 3d 23 89 14 bd a4 22 41 bd df 9d 22 3d
       0.11247921 -0.036263596 -0.047152176 0.03970134
000320 b3 c5 5e 3d a7 ac 28 3b 23 9f 14 bd 06 32 b8 bd
       0.05438776 0.0025737674 -0.036284577 -0.08993916
000330 0c 77 70 3d 5d 53 10 3d 58 cd fd bd 11 33 90 bc
       0.058707282 0.03523575 -0.12392682 -0.017602475
000340 62 13 2b bd 00 8c 01 3e 40 d7 8f bc ea 10 a6 3d
       -0.04176653 0.12651062 -0.017558694 0.08108695
000350 e9 85 a1 bb 26 1d c6 bd 5e a8 f5 3c 96 a8 98 bd
       -0.0049292934 -0.096735284 0.02998751 -0.0745403
000360 63 d7 3d 3d de 57 a7 3d 58 fb ff bd fc 90 3d bd
       0.046347987 0.08171056 -0.12499112 -0.046280846
000370 a2 09 dc 3a 57 a4 f7 3d 29 37 03 3e 7f f7 b2 3e
       0.0016787539 0.12091892 0.1281401 0.3495445
000380 9f 8b 02 bd f9 1a 8c bb d0 72 0e bd 37 f9 b9 bd
       -0.031871434 -0.0042756763 -0.034777462 -0.09080737
000390 1b 0d 45 3d 56 ab 1a b8 97 b6 1b 3c a3 fe 1e 3e
       0.0481082 -3.687603e-05 0.009503982 0.15526824
0003a0 36 6d 1c bc 5d 06 30 bd 1e c5 e3 3c fe 5a 87 ba
       -0.009547522 -0.04297482 0.027803954 -0.00103268
0003b0 14 bf e9 3d c8 af 14 3e 68 f6 f2 3a 1d 07 7b bc
       0.114133984 0.1452018 0.001853657 -0.01532152
0003c0 69 30 0d 3c 70 bb 3d 3d 0a 98 5e 3d eb b1 20 3e
       0.008617499 0.046321332 0.054344214 0.1569287
0003d0 95 9b de 3d 0e 25 28 3d 92 b9 a4 be d7 d0 a3 bd
       0.10869519 0.041050963 -0.3217283 -0.079988174
0003e0 c0 3d ac 3d d5 35 cc 3d 66 cb c5 3d f5 26 10 bd
       0.084102154 0.09971205 0.09657936 -0.035193402
0003f0 f2 2d 20 3d 6d 01 f2 3d d9 3e 90 3c c3 c9 f8 3c
       0.039106317 0.11816678 0.017608093 0.030369645

convs.0.lin_r.weight f4 [256, 128]
000000 38 f7 30 bd 62 e0 85 3d dd b4 e5 bc 73 12 97 bd
       -0.043204516 0.06536938 -0.028040344 -0.07376566
000010 8b 29 a8 3d 04 ae b5 bd a5 64 5f bd b1 92 7f 3b
       0.08211049 -0.088710815 -0.05453934 0.0038997347
000020 19 fc c1 bd aa 23 61 bd 13 f8 b1 3d 57 fe df 3d
       -0.09471912 -0.054965653 0.086898945 0.10937183
000030 1b 3a 01 3c 64 82 0b bb 60 c1 16 3d 3e fc 05 bd
       0.007887389 -0.0021287436 0.03680551 -0.03271126
000040 f5 16 2e bd 3e 27 08 bd 55 d0 13 3c ea b3 06 be
       -0.042502362 -0.03324055 0.009021838 -0.1315457
000050 a8 06 11 3e 48 87 8e bb 18 bb 86 bd ba bf c5 3d
       0.14162695 -0.004349623 -0.06578654 0.096557096
000060 e9 ad 5e 3d e9 4d dc bc 80 76 60 bd ec ac 29 3d
       0.054365072 -0.02689262 -0.05480051 0.041424677
000070 c4 ff 4b bd a9 65 10 3d 56 9c ad 3c 53 53 4c 3c
       -0.049804464 0.0352532 0.02119271 0.012471038
000080 9d 2f 83 bd 77 85 a4 bd bb f0 5a bd 24 c8 df 3d
       -0.06405566 -0.08033269 -0.053452235 0.10926846
000090 72 68 ba bd 3f 22 78 bc 18 18 ab 3d 7d d5 59 3d
       -0.091019526 -0.015144884 0.08354205 0.053182114
0000a0 60 21 95 3d 7a b7 02 3e 16 ba d8 3d f3 57 30 3d
       0.072817564 0.12765303 0.10582368 0.043052625
0000b0 dc fb 87 3d a4 c5 9f 3d c2 2d f3 3d 2d 01 26 3c
       0.06639835 0.07801369 0.11873962 0.010132116
0000c0 bc 43 b0 3c 47 c0 12 3c 21 1a 92 3a bb 51 16 bd
       0.021516673 0.008956975 0.0011146703 -0.036699038
0000d0 d6 b9 14 bd 5e 0a 2d bd f4 02 38 bd 91 fa 5b 3c
       -0.03631004 -0.042246215 -0.04492469 0.013426439
0000e0 9f 48 f3 bb e1 f9 7e 3d ba f6 aa 3d 23 ed 18 bd
       -0.0074244286 0.06225002 0.083478406 -0.037335526
0000f0 86 2a 86 bd 2a 53 7c 3c f2 54 75 bb 14 ec 89 bd
       -0.065510795 0.015400687 -0.0037434665 -0.067344815
000100 93 aa 8c bc d3 81 45 bd 2b 45 0a 3b 3d 90 2c be
       -0.01717118 -0.048219513 0.0021098356 -0.16851898
000110 78 47 ba bc 25 c0 54 3d 21 17 63 bd ba cf 44 3d
       -0.022739157 0.051941056 -0.05544198 0.048049666
000120 23 ca 0f 3c c0 65 15 bd da 00 2b 3d ad 42 87 bb
       0.0087762205 -0.03647399 0.04174886 -0.0041278214
000130 95 a0 b9 bc 02 7f 1f bd 36 ab df bc e3 e6 0f 3c
       -0.02265958 -0.038939483 -0.02730332 0.008783075
000140 26 9a 18 3d 7c 27 9d bd 24 ca c8 3b 8d 7a 78 3d
       0.037256382 -0.07673547 0.0061276127 0.06066375
000150 26 07 07 3d 6e fd f2 bc cd 90 97 3d b0 84 d8 bd
       0.0329658 -0.02966186 0.074006654 -0.10572183
000160 83 cb 3d bc e6 c9 d5 bd 3e 3b aa bc 1f 2b 13 be
       -0.0115841655 -0.104389 -0.020780202 -0.14371918
000170 1a c8 20 3d 8d 8f 08 bc 7f 0e 35 3a 1b d2 68 3b
       0.03925333 -0.008335006 0.0006906762 0.0035525623
000180 34 e7 fd bd ce 04 b9 bd a1 bd 03 be e8 e0 76 bc
       -0.12397614 -0.090341195 -0.12865306 -0.01506827
000190 7b dd 60 bc be b4 c0 bc ad d2 d3 3d 4a 53 32 3d
       -0.01372468 -0.023523685 0.103429176 0.043536462
0001a0 1f 19 2f 3c 8c 90 d1 bd e1 ce 7c bd 14 c8 67 bd
       0.010687142 -0.10232648 -0.061720733 -0.056587294
0001b0 aa db 7e bd f7 ce 64 3d 46 75 89 bd 6c 7a f4 bc
       -0.062221207 0.05586144 -0.06711821 -0.029843532
0001c0 dc 70 c0 bd 5b 12 5f bb 66 b0 5c 3c a6 c1 20 be
       -0.09396526 -0.003403804 0.013469791 -0.15698871
0001d0 56 1d 7e bc 91 9d e1 3c 02 25 8c 3d 78 4c 80 3d
       -0.015509924 0.027540954 0.06842996 0.06264585
0001e0 8f b4 80 3d a9 b2 c2 3d 7f 42 34 3d 6f 7c b8 3d
       0.06284439 0.09506733 0.044008728 0.09008109
0001f0 75 98 8d 3d e5 a8 e4 3b 5e 70 95 3d 1b ea ab bd
       0.069138445 0.0069781416 0.07296823 -0.083942614
000200 e1 ba 9c 3d b0 6d da 3d e0 4d 56 bc f2 2c fc bd
       0.07652832 0.106654525 -0.01308009 -0.1231326
000210 ae 00 16 bd c5 1f 55 bc 14 27 a3 bc e7 d0 dd bd
       -0.036621742 -0.013008063 -0.019916095 -0.108308606
000220 d6 fc 7f 3d da 65 94 bd 0d 50 7f 3d da 0c 19 bd
       0.062496983 -0.07245989 0.0623322 -0.03736577
000230 e1 78 59 bd 5e b3 e6 bd 69 4e 2f bd 78 15 82 bd
       -0.053093795 -0.1126468 -0.042799387 -0.06351751
000240 be 1b 11 3d 13 d1 42 3d b7 80 bd 3d c7 a1 30 3d
       0.035426848 0.04756267 0.09253066 0.043123033
000250 c7 cf 30 3d 0b 0c fd bc 78 41 86 3d 7e 0e 34 bd
       0.043166902 -0.030889532 0.06555456 -0.043959133
000260 d9 55 5e bd 61 fb e6 bc f6 55 b7 3d 5f 35 4c 3c
       -0.05428109 -0.028196039 0.089519426 0.012463897
000270 a5 e0 e0 bd 03 2b 35 3c d5 93 ef 3d f1 d7 67 3d
       -0.109803475 0.011057618 0.116981186 0.056602422
000280 fc 67 da 3d 37 94 36 bb 40 80 92 3c 2e ab a5 3c
       0.10664365 -0.002785934 0.01788342 0.020223226
000290 39 a3 8f bd 59 5c 43 bd a3 be ac 3d 44 57 41 bd
       -0.07013554 -0.04769549 0.084347986 -0.047202364
0002a0 64 14 86 3d 23 44 f4 3c 74 50 b8 bc 76 a5 e0 3d
       0.06546858 0.029817646 -0.0224993 0.10969059
0002b0 4f 76 bd bc 05 3f e6 bc d9 17 94 bd 9e 6b 0f 3d
       -0.023127703 -0.028106222 -0.07231111 0.03501474
0002c0 9f fb aa 3b c1 53 99 3d a8 c2 6f bd 5e d8 3a bd
       0.005217984 0.07486678 -0.058535248 -0.0456165
0002d0 58 81 32 3d 17 02 6f bd b9 d3 a0 bc f4 6d 17 be
       0.043580383 -0.058351602 -0.019632207 -0.14788038
0002e0 e7 fd 71 ba 04 5e a2 3c 3e cf a8 3c 62 5e 36 ba
       -0.0009231255 0.01982022 0.020606633 -0.0006956813
0002f0 8f 97 d5 bc 6a de 6f 3d 4f b2 43 3d 72 90 7b 3d
       -0.026073245 0.05856172 0.04777747 0.06141705
000300 e0 d1 71 bd 62 36 f5 bd f3 b0 80 bc 62 4f 90 bd
       -0.059038043 -0.11973263 -0.015709376 -0.07046391
000310 fd cc a7 3d d0 c4 31 3d 9c 7c d6 3c f3 61 d0 3d
       0.08193395 0.043400586 0.026182465 0.10174932
000320 b3 6b a0 3d 40 dd c1 3c 76 a5 d8 bd 98 d3 e5 3c
       0.07833042 0.02366507 -0.10578434 0.028054997
000330 bc 0f b2 3a d8 01 80 3d 92 86 92 3d df 36 b7 bd
       0.0013585011 0.06250352 0.071545735 -0.08946013
000340 2f a5 91 bd 95 4b 38 3d 5f d8 32 bd ef 76 b6 3d
       -0.071115844 0.044993956 -0.04366338 0.089094035
000350 64 18 be bb 94 f5 24 bd 64 4f 18 3d 75 da 21 3d
       -0.0058012474 -0.040273264 0.037185088 0.039514977
000360 14 d8 61 bd 51 00 be bc 0e 18 a2 3b 15 b4 cd bd
       -0.05513771 -0.02319351 0.004946715 -0.100441135
000370 b6 32 ea 3c 16 90 6c 3c 79 fc 42 3d dd 3f 32 3e
       0.028588634 0.01443865 0.047604058 0.17407174
000380 57 19 35 3c aa 03 c9 3d cd 74 10 be 09 05 c5 bc
       0.011053405 0.09815152 -0.14107056 -0.024050253
000390 6e 0d 85 3c 24 15 d3 bc cc 6c c6 bd b5 e3 c8 3d
       0.016241755 -0.025766917 -0.0968872 0.09809057
0003a0 55 da 75 bd 27 5c 38 3d 75 4e ee bd e8 29 8d bd
       -0.06002267 0.04500976 -0.11636058 -0.068927586
0003b0 b3 16 89 3d 5d a2 8e 3d 7b 3e a9 3d 34 39 30 3d
       0.06693783 0.06964562 0.0826387 0.043023303
0003c0 56 08 ab 3d 2f f1 d7 3d 54 b7 14 3e 54 ac e0 3d
       0.08351199 0.10544049 0.14523059 0.10970369
0003d0 8c c9 46 3d 58 92 37 3d 34 83 5c be 74 96 c2 3c
       0.048532054 0.0448173 -0.21534425 0.023753382
0003e0 fc 6b 56 3d 31 5c c9 3d 4a 26 03 bc e2 a3 cc bd
       0.052349076 0.09832037 -0.008004734 -0.09992196
0003f0 42 22 f4 3c 93 9d 67 3b 1e 3d f9 bc 24 57 a0 3d
       0.029801492 0.0035341724 -0.03042465 0.07829121

convs.1.lin_l.weight f4 [256, 256]
000000 f8 3e 72 bd 9f 58 86 3d df f1 23 3d 09 68 7b 3d
       -0.059142083 0.06559872 0.040025588 0.061378513
000010 96 18 fc bc f6 f4 00 3e 79 b3 9c 3c c8 8a f1 3c
       -0.030773442 0.12593445 0.019128548 0.029485121
000020 35 21 d5 bd da 12 e9 bc 73 4d 51 bd 4b 69 9e bd
       -0.10406724 -0.028451372 -0.051099252 -0.07734927
000030 d2 4d 89 bd ba 5d 84 3d 09 59 32 3d 8d 37 91 bc
       -0.06704296 0.064631894 0.04354194 -0.017726684
000040 c1 06 11 3d ad 77 76 3c 93 82 ed 3d 83 f1 8d 3d
       0.03540683 0.015043181 0.11597171 0.0693083
000050 89 d6 00 3d f5 fb d6 bb 6c a1 78 3c cd 2e ad 3d
       0.031454597 -0.0065607973 0.015175205 0.08456192
000060 37 15 91 bc d3 b1 86 bc 34 d5 21 bd 39 cc 38 ba
       -0.017710311 -0.016442215 -0.039509967 -0.00070494745
000070 1e 14 3c bd de d2 19 bd 73 dd a0 3d dd 63 e4 bc
       -0.045917623 -0.037554614 0.07854738 -0.02787965
000080 da 61 97 bc 8c 00 03 3d 69 a5 ae bd 8c 92 ba 3d
       -0.018479276 0.031982943 -0.08527643 0.09109983
000090 a3 a5 f8 3d 75 3a 4e bc 98 c8 a1 3d a6 eb 09 3e
       0.12140968 -0.012587179 0.07899588 0.13468799
0000a0 f6 20 22 3d d5 5e a6 3b 3a 63 17 bd a4 07 8a bd
       0.039582215 0.005077223 -0.036959864 -0.067397386
0000b0 3d 74 ef 3c a5 f2 32 3d 2b c9 32 3d ef 0d b9 bd
       0.029230231 0.043688435 0.04364888 -0.09035861
0000c0 27 43 90 bd 5e e5 0d bd df bf 86 3b 0d ab db bc
       -0.07044058 -0.03464257 0.0041122283 -0.026814962
0000d0 a0 44 73 3b 06 e2 2c bd 11 e5 cc 3d cc 86 b7 3d
       0.003711976 -0.04220774 0.100046284 0.08961257
0000e0 d8 0e fc bc f8 a3 76 bd 5e 8b d2 3c d6 d7 e5 3c
       -0.030768797 -0.060214967 0.025701221 0.02805702
0000f0 bc d6 38 bb 62 d1 18 bd 00 b2 e5 3c 46 b3 0e bd
       -0.0028204164 -0.037309058 0.028038979 -0.034838937
000100 ea 65 8d 3c 5f 3b a5 3d 70 e2 7a bd f2 52 80 3c
       0.01726051 0.08067965 -0.061251104 0.015664551
000110 d3 66 03 3d b5 f3 ce 3d cf 27 16 3e 8b b6 d9 bc
       0.032080483 0.10105077 0.14663623 -0.026576301
000120 11 22 ac bc d4 55 48 3d d3 82 0e 3d 07 89 fc 3d
       -0.021012338 0.048909977 0.034792732 0.123308234
000130 f7 a8 2c 3d 42 f7 8c 3d 99 73 85 bd 95 5e df 3d
       0.042153325 0.06883098 -0.06516189 0.10906712
000140 2b 6a c5 bd a8 13 c3 3c 54 de 18 3b a4 81 99 3d
       -0.096393906 0.023813084 0.0023325877 0.0749543
000150 d7 71 d6 bb 59 fb 83 3d f7 e1 d1 3b 31 02 cf 3d
       -0.0065443325 0.06444425 0.006405111 0.1010784
000160 49 3b 55 3c 4a 89 18 bd a2 d4 45 3d 2d e6 39 bd
       0.013014623 -0.037240304 0.048298486 -0.04538553
000170 e3 db 80 bd 1e 31 66 bd 5d b6 02 3b bd 61 8a 3d
       -0.0629194 -0.056199186 0.0019945123 0.06756923
000180 ba 1d 93 3c ce 57 89 bc a5 1a 7c bd 71 87 ac 3c
       0.01795851 -0.016765501 -0.061548848 0.021060677
000190 77 09 a2 3b 24 4b 04 3e a5 a4 93 bd ec cf 7b 3d
       0.004944976 0.12919289 -0.07209138 0.061477587
0001a0 fd f2 1f 3d 9c 11 a7 3d 28 7c 0a be 57 67 3a bd
       0.03905009 0.081576556 -0.13523924 -0.04550871
0001b0 67 88 53 bd 6b 79 c7 3d d2 00 0c 3e d5 6b 19 3d
       -0.051643755 0.097399555 0.13672188 0.037456352
0001c0 b7 2b 0a be 31 a3 22 bd 92 ac 26 3d 6f bb ce bb
       -0.13493238 -0.039706413 0.04069192 -0.006308965
0001d0 cd 17 f7 3d e5 20 a1 3d 82 90 9b 3d bb 38 6d 3d
       0.120650865 0.07867602 0.07595922 0.05791543
0001e0 94 29 cf 3b fc e6 12 3d 23 85 34 bd ed 65 59 bc
       0.006322095 0.035864815 -0.04407228 -0.01326893
0001f0 7d a0 4e 3d 91 2e 89 bd 1d 46 95 bd 94 23 33 bd
       0.050446022 -0.06698335 -0.07288764 -0.0437351
000200 01 6f 56 bc 6c ff ee 3d 34 78 09 bd eb 30 4d bd
       -0.013087989 0.116698116 -0.0335619 -0.05009548
000210 0e 39 c3 3d cb 7e 81 3d 8f 05 51 3d 70 7f 86 3d
       0.09532367 0.06323012 0.05103069 0.065672755
000220 f3 83 ce bd 09 17 12 be c2 b3 b4 3c 53 ac 1c bc
       -0.10083761 -0.142666 0.022058371 -0.00956257
000230 ba dd 81 3d 6c 5b b6 3d 17 4b aa bd 87 f8 8e 3c
       0.06341119 0.08904156 -0.083151035 0.017452491
000240 34 96 44 3d 3f a9 b5 bc 39 48 ab bc 0a 6e 4e 3d
       0.047994807 -0.02217543 -0.020908462 0.05039791
000250 1c 10 e1 3d ae 9f 0f 3b 37 69 a1 3d e2 7e 08 be
       0.10989401 0.0021915245 0.07881396 -0.13329652
000260 ed d7 63 bd f6 6b 1e 3d a5 f1 ab bd 2c 96 dd 3d
       -0.055625845 0.03867718 -0.083956994 0.10819659
000270 91 f7 d5 bc 2c 19 7f bd 93 52 c6 3c 36 12 c1 bc
       -0.026119025 -0.062279865 0.024209296 -0.023568254
000280 64 dc b9 bd ab 43 ca bd 7a 6b 2e 3b 36 85 a1 3a
       -0.09075239 -0.09876188 0.0026614354 0.0012323025
000290 56 2b 98 3b 3a 38 8c bd b6 71 d4 3b 36 5c a1 3c
       0.004643838 -0.06846662 0.006483282 0.01969729
0002a0 5c a7 41 bd fa 51 3a 3d c1 53 11 bd 22 4c 78 bd
       -0.047278747 0.045488335 -0.035480265 -0.06061948
0002b0 12 06 1a 3e 64 30 1f 3e 09 b9 25 bb 91 1d 23 3d
       0.15041378 0.15545803 -0.0025287292 0.03982312
0002c0 ab 93 c8 3c cd 3a e5 3c 49 83 37 3d 99 cd ea 3d
       0.024484476 0.02798214 0.044802938 0.11464996
0002d0 d1 01 68 bd 5d 1f f2 bd 4f 2d c0 bd a7 17 9d 3d
       -0.056642357 -0.11822388 -0.09383642 0.07670527
0002e0 fa 8e de bd a0 7a 1a 3d 2e 45 83 3c 63 83 8a bd
       -0.10867114 0.0377146 0.016024198 -0.06763341
0002f0 98 f8 9f ba 85 f3 31 bb c0 96 8f 3d 79 2d 7f 3d
       -0.0012204824 -0.0027153206 0.07011175 0.062299225
000300 95 aa 5c 3d d1 f6 bf 3d 16 a4 dc 3c 3b 79 c4 bd
       0.053873617 0.09373248 0.026933711 -0.095934354
000310 ed 04 94 bd 96 19 83 bd f7 e9 43 bc f7 e8 28 bd
       -0.07227502 -0.064013645 -0.011957637 -0.041237798
000320 3b 89 d0 3d 35 2d 2f 3d 9c e1 40 bd a8 9b 86 3d
       0.10182425 0.042767722 -0.047090158 0.06572658
000330 41 5f b2 3c 2e 02 d3 bc f5 c4 b4 bd 0c 94 1b 3d
       0.021773936 -0.025757875 -0.08826629 0.037982985
000340 d9 ee 60 bd 8c a8 49 bd ad 21 5a 3c 82 df 8b 3d
       -0.054915283 -0.049233004 0.013313693 0.0682974
000350 57 9c 92 3c 6b 33 8e 3d 17 35 bd bd 4f 5a 51 3d
       0.017896814 0.06943401 -0.09238642 0.051111516
000360 41 d5 4d bc 10 2b e5 bb ae 88 24 bd 82 4d 88 3c
       -0.012563051 -0.006993659 -0.04016941 0.016638521
000370 bb fb 6f 3c cc a3 9f 3c bd 65 dd bd 26 ca e8 3d
       0.01464742 0.019487284 -0.10810421 0.11366682
000380 24 5e 74 3d 47 fe 1a bc b4 fb c1 bd e8 4f 4a 3c
       0.059660092 -0.0094600385 -0.09471837 0.012348153
000390 31 c2 4a bc 6a 0f 0a 3e 54 45 57 3d d9 36 d0 3d
       -0.0123754 0.13482442 0.05255635 0.10166711
0003a0 71 5e f2 3d 9f 27 bb bd 1c 63 d0 bd 84 4a 8a 3c
       0.118344195 -0.091384165 -0.101751536 0.016881235
0003b0 1f c3 e3 3c 13 15 9e 3c 7d 6c 8c 3c c1 f5 38 bc
       0.027803002 0.019297158 0.017141575 -0.011289061
0003c0 82 9d 77 3d 9a a7 e7 3d 1b 74 02 be cd d1 2b bd
       0.060452946 0.11311264 -0.12739603 -0.04194813
0003d0 ab 03 da 3d 59 6a 0b 3e ca 2c 2b bd 07 02 5c ba
       0.10645231 0.13614787 -0.04179076 -0.0008392636
0003e0 c3 dd e3 3c 9a f3 36 3d 64 da 4b bd 0c e9 4f 3d
       0.027815705 0.04466591 -0.04976882 0.05075936
0003f0 1a 2b 63 bd 04 83 ba 3d 3a ee 20 3e 5d 0b c4 bc
       -0.055461027 0.091070205 0.15715876 -0.0239312

convs.1.lin_r.weight f4 [256, 256]
000000 7c 7d d5 bc 97 18 ce 3d de a7 84 3d d0 1c e5 bc
       -0.026060812 0.10063284 0.064773306 -0.02796784
000010 b6 8a 25 bd 22 f8 c3 bb 94 9e 5a 3d fc f8 82 3d
       -0.04041549 -0.0059805075 0.053373888 0.06395146
000020 f7 67 6a bd 54 2d 8b bc 1b 86 3d 3c 13 49 da 3c
       -0.057228055 -0.016989388 0.011567618 0.026646173
000030 a4 23 e6 bd 4f b4 f8 39 ac ae 08 3c ed a9 1d 3d
       -0.11237267 0.00047436586 0.008342426 0.038492132
000040 ac 39 e8 3c 77 3e 58 bd a4 d6 2d 3d cf ea 0f 3d
       0.028347813 -0.052793946 0.042441025 0.03513604
000050 54 1d a0 bc c5 c3 71 bd d1 67 03 bd 63 47 cc 3d
       -0.019545235 -0.05902459 -0.03208143 0.099745534
000060 39 11 f7 bc a0 46 6c bd ce 50 3f bd d7 9e 74 bd
       -0.03015958 -0.05768454 -0.04670792 -0.059721794
000070 cd 06 57 bd 55 44 a9 bd 9b a6 42 bd fa 50 bb bd
       -0.05249672 -0.082649864 -0.04752217 -0.091463044
000080 cf 47 89 bd 7e 29 5c bd 14 d4 91 bd 7f d6 66 bc
       -0.067031495 -0.053750508 -0.07120529 -0.014089226
000090 04 4d 83 3c 10 86 31 ba ca 05 62 3d 95 65 4c 3c
       0.016027935 -0.0006771991 0.055181302 0.012475391
0000a0 18 68 a2 3d b0 4c 52 3b fb 97 5f bd ac 0a 02 bd
       0.079300106 0.0032089166 -0.0545883 -0.03174846
0000b0 0d 05 48 bc bc 0c d7 3d d4 90 50 bc e2 60 06 bd
       -0.012208235 0.10500476 -0.012729842 -0.03280724
0000c0 e8 93 04 bd 13 c9 26 3d 44 5d d5 3b e8 33 1e 3d
       -0.032367617 0.040719103 0.0065113623 0.03862372
0000d0 91 8d ee bc 3a 9c 96 bc 48 a4 0b bc 56 f5 13 3d
       -0.029120238 -0.018385042 -0.008523054 0.036122642
0000e0 9a 54 ad bd 80 2a cc bb 05 b9 30 bd ca cc ba bb
       -0.08463402 -0.0062306523 -0.0431452 -0.0057006823
0000f0 42 14 10 3d 5d c8 6c 3d 4e bc fb 3c 86 a0 5a bd
       0.03517557 0.05780827 0.03072944 -0.053375743
000100 d5 42 cf 3d b2 5a 8e 3d d1 a0 7e bd ae c1 66 3d
       0.10120169 0.069508925 -0.062165085 0.05633705
000110 5c 52 87 3c 28 4d 4c 3d ed 62 90 3d 59 29 53 bd
       0.016518764 0.04987827 0.070501186 -0.051553104
000120 1c 01 a7 bc 65 2f 5e 3c c8 37 85 3d 9c 96 54 3c
       -0.020386271 0.013561104 0.0650478 0.012975361
000130 0c 13 cb 3d ea a1 a3 3c dc db 8f bd a0 fa 12 3d
       0.09915742 0.019974668 -0.07024357 0.035883546
000140 b8 e6 01 bd 73 6f 7d bc 7d 7f b7 3c 7e 1e 94 3d
       -0.03171417 -0.015468466 0.022399658 0.072323784
000150 da 42 20 bd 8d 5a 09 3c 21 46 8e 3b 08 b0 4f 3d
       -0.039126255 0.008383405 0.004341856 0.050704986
000160 ff 06 87 3c c8 d5 23 3d f7 60 00 bd ec 14 0e bc
       0.016482828 0.0399988 -0.031342473 -0.00867198
000170 b9 fa 3e bd ec b3 5f bb 46 34 c8 3c 18 5f d4 3c
       -0.046625827 -0.0034134341 0.024438988 0.02592425
000180 f7 5d e0 bc f7 64 5f bd 72 58 24 3c 2a 6b 99 bd
       -0.027388556 -0.054539647 0.010030853 -0.07491143
000190 90 80 c3 3c 4f 37 38 bd 1d ee 73 bc 58 9f 06 bc
       0.023865014 -0.04497462 -0.014888314 -0.008216701
0001a0 b7 de 53 3d 67 61 02 3c ef d8 48 bd 8b df d4 3c
       0.05172607 0.007957793 -0.04903501 0.0259855
0001b0 80 45 09 bd ba d6 ad 3d e8 3c ac 3c f1 0a c1 bb
       -0.033513546 0.084882215 0.021025136 -0.005891197
0001c0 26 1e e3 bd 5f ba f6 3c 55 a5 fa bc 79 a6 82 3c
       -0.11089735 0.030118166 -0.030596415 0.015948521
0001d0 69 85 d0 3b 1b 59 b0 bc f1 b9 f7 bc 41 ed 32 3d
       0.00636356 -0.021526864 -0.030240031 0.043683294
0001e0 39 7d bd bd f3 a4 7e 3c aa 66 0b 3d fa 49 b7 bc
       -0.092524 0.015542257 0.034033455 -0.022374142
0001f0 02 85 98 3c cf 5f a4 bd cc 9b c0 bc bc 2f f3 bc
       0.01861811 -0.080260865 -0.02351179 -0.029685847
000200 4b f8 74 bd d9 94 ad 3d 4a b9 a5 bb eb ca c2 3c
       -0.059807103 0.08475656 -0.0050574886 0.0237784
000210 80 58 ee 3d bc df bd 3b be 85 19 bd ce a9 55 3c
       0.11637974 0.0057944935 -0.037481062 0.013040973
000220 ef 0d 8f bd 37 7b 39 bc 37 fb 74 b9 0c da 81 3d
       -0.069850795 -0.011320881 -0.00023363238 0.06340417
000230 da 68 59 bd c2 6f 85 3d c0 7f 44 bd 42 2a 04 bd
       -0.05307851 0.06515457 -0.047973394 -0.032266863
000240 52 77 ac 3d c3 a6 13 bd 54 ee 82 bd 99 58 df 3d
       0.08421196 -0.03604771 -0.06393114 0.109055705
000250 60 a6 f9 3a be 7e 5f 3c d0 25 8c 3c 99 3e 6b bd
       0.0019046776 0.013641058 0.017107874 -0.057432745
000260 90 3e b3 bd d8 0c 51 3d a9 7a 2a 3b 90 a5 55 3d
       -0.08752167 0.05103764 0.0026013053 0.052159846
000270 57 32 ba bd df 14 07 3d b0 05 a3 bc 88 91 15 bd
       -0.09091633 0.03297889 -0.019900173 -0.036515743
000280 b5 5f 1f bc 3d 23 02 be 4c 21 18 bd cf 43 45 bc
       -0.009727408 -0.12708755 -0.03714113 -0.012040093
000290 4f f6 33 bb 2d a7 f1 3c 18 b8 dc bc 95 3a bc 3d
       -0.0027460044 0.029498661 -0.026943251 0.09190861
0002a0 77 b9 f0 bc cc e8 d4 bb 29 39 75 bd 54 57 4d 3d
       -0.029385312 -0.006497478 -0.059868965 0.05013211
0002b0 2a a4 e0 3c 77 42 bb 3d 84 f1 96 3d c0 26 62 3d
       0.02742203 0.091435365 0.07370284 0.055212736
0002c0 45 9a 2c 3c 48 39 91 3b 07 f0 a8 3d 28 1a 27 3d
       0.010534828 0.0044318773 0.082489066 0.04079643
0002d0 ee b4 33 bd 9f e6 bf bd 87 3b 96 ba f7 54 97 3d
       -0.04387372 -0.09370159 -0.0011461832 0.07389253
0002e0 7b 2a de bc 8a 04 6d 3c fd 84 05 3d 5c 55 5d bd
       -0.027119866 0.014466414 0.03259753 -0.054036483
0002f0 9f 92 42 3d 18 24 8f 3b d1 93 fe 3c 4d 07 9c 3d
       0.04750311 0.0043683164 0.031076344 0.0761858
000300 a6 0f 9f 3b 5e 5c e2 bb fe 02 8a bd ed 60 2b be
       0.0048541604 -0.0069079837 -0.06738852 -0.16736193
000310 e7 bf 88 bd 48 df f8 3c f2 19 60 bc de 1c 33 bd
       -0.066772275 0.030379906 -0.013678061 -0.0437287
000320 fe 9a c0 3d 06 56 43 bd cd 81 a6 bb c5 5f 6b bb
       0.094045624 -0.04768946 -0.0050813914 -0.0035915237
000330 9f de 76 bd 42 1a 42 bd 1f f5 f9 bb 78 d0 cf bb
       -0.0602709 -0.047388323 -0.0076280977 -0.00634199
000340 f7 b2 a9 bd 3a 86 d7 bb 5a fb d1 3d 90 d6 04 3d
       -0.08286088 -0.0065772804 0.1025302 0.032431185
000350 37 20 a1 3d 43 fa 5c 3d 12 80 2d bd fc ba c7 3c
       0.078674726 0.053949606 -0.042358465 0.024381153
000360 ab da 97 3c 96 24 47 3d f5 47 be 3c 2b 01 8a 3d
       0.018536886 0.048618875 0.023227671 0.06738504
000370 cb 45 ba bc cb cc 86 bc b1 91 d9 bd 64 fc 73 3d
       -0.022738358 -0.016455075 -0.106234916 0.05956687
000380 ff 33 82 bd 9e 02 2d 3d 69 f0 73 bd b2 4e 8a bd
       -0.06357574 0.042238824 -0.059555445 -0.06753291
000390 93 cb 3d bd 18 e8 67 3d 2b 95 07 3d 24 2d 0c 3d
       -0.04633672 0.056617826 0.033101242 0.034222737
0003a0 21 2f 3d 3d bc 50 52 bb d7 01 14 bd b1 5c 27 bc
       0.046187524 -0.0032091578 -0.036134567 -0.01021497
0003b0 5b 37 b0 3d 14 21 c5 3c 84 d3 82 3d e1 f7 0f bd
       0.08604308 0.024063624 0.06388 -0.035148505
0003c0 ca c6 5e 3d 85 42 12 3e 0e b9 b9 bd cf a7 09 3c
       0.0543888 0.14283188 -0.090684995 0.008401825
0003d0 16 49 a5 3d e5 92 b6 3d cf b8 69 bd f4 ec 9f bb
       0.08070581 0.08914737 -0.057061013 -0.004880542
0003e0 00 04 fe bc 14 9a 86 3c 86 a6 8c b9 d6 66 aa bd
       -0.031007767 0.016430892 -0.0002682695 -0.08320396
0003f0 3e 47 b9 bc 80 79 89 bc 1d 11 05 3e 34 31 69 3d
       -0.022616979 -0.016781569 0.1299481 0.05693169

convs.2.lin_l.weight f4 [40, 256]
000000 75 68 ac bd 91 a1 85 3d 47 a8 a4 bb 84 2d bc 3d
       -0.08418361 0.06524957 -0.005024943 0.09188369
000010 20 8b 72 3d a2 7e 1d 3d 01 4c 06 be 0a 79 41 bb
       0.05921471 0.038450845 -0.1311493 -0.0029521608
000020 a9 25 bf bd b4 13 ce bc 5e c1 49 3d a6 fc b7 bd
       -0.09333355 -0.02515588 0.049256675 -0.08983736
000030 6a 40 cb bc 4f f9 19 be 31 fd 81 3c eb bf b6 3c
       -0.024810988 -0.1503651 0.015867801 0.02230831
000040 73 01 45 bd a8 f3 73 3c 29 62 ca 3c e1 45 08 be
       -0.048097085 0.014889635 0.02470501 -0.13307907
000050 df 86 83 bd 38 5f f8 3b cf 87 ac 3d 4e 00 ea bd
       -0.06422209 0.0075797103 0.08424341 -0.11425839
000060 8d 6f 33 3c 25 97 06 bd 54 9a c7 3d b2 c3 c7 bd
       0.010951889 -0.032858986 0.09746233 -0.09754123
000070 5b 0f b6 bd 6b a7 93 bc 74 a7 e6 3c 24 f6 22 3c
       -0.088896476 -0.018024167 0.02815602 0.00994638
000080 a8 bf 81 bb 4a 32 4f 3d ba c4 37 bd 76 65 b6 ba
       -0.003959615 0.05058507 -0.044865347 -0.0013915736
000090 8f 62 87 3d a2 66 50 bd ed 0d ab bb c6 13 26 3c
       0.066105954 -0.05087913 -0.005220166 0.01013655
0000a0 b8 ef 93 bd ab 52 e1 3c 67 16 b8 3d cb 0b 1e 3d
       -0.07223457 0.02750524 0.08988648 0.038585465
0000b0 c5 88 17 be bc da 1d bc ac 87 0b be 70 86 9d 3c
       -0.14798267 -0.00963467 -0.13625973 0.019229144
0000c0 f9 34 4f 3d 7c db fc 3c 72 2d 03 bd 46 e1 13 be
       0.050587628 0.030866377 -0.032025762 -0.14441404
0000d0 1f 81 2c bd 38 fd 38 3d d5 5d a1 bc a8 ed 2a 3d
       -0.042115327 0.045163363 -0.019698063 0.041730553
0000e0 ed 8c a2 3a 4c 4c 05 3d 95 6c 08 3d 2a 9e f2 3c
       0.0012401618 0.032543465 0.033306677 0.029616434
0000f0 a2 b6 88 bd 3a 5d 9e 3d ba 0e d3 3d 11 88 6a bd
       -0.066754594 0.07732625 0.10305543 -0.05725867
000100 45 9e 28 be ce 96 be bb 93 aa 9e bc 6b 5c 5c 3d
       -0.16466625 -0.005816317 -0.019368446 0.053799074
000110 bb 4b 97 bd 39 87 6e bd fe 61 17 3c f9 f6 9d bd
       -0.07387491 -0.058234427 0.009239672 -0.07713122
000120 b3 44 9e bc 57 21 32 be 9f 1b bb bc 2f 90 17 bd
       -0.019319868 -0.1739553 -0.02284032 -0.03700274
000130 30 7d 82 3d 60 7e 93 3c 0f ff 6d bd 60 d7 d2 3d
       0.06371534 0.018004596 -0.05810457 0.10294986
000140 c6 02 1d ba 4d b9 39 3d e9 82 05 be f2 46 12 be
       -0.0005989488 0.045342732 -0.1303822 -0.14284876
000150 8c 52 9b bd 26 d2 b5 bc 37 20 2d 3d 8d eb 08 3c
       -0.07584104 -0.022194933 0.04226705 0.008356941
000160 db 93 73 3c 17 ad 12 be 45 36 45 3d a2 2f de bd
       0.014866794 -0.14323841 0.04814746 -0.10848929
000170 e8 4f 13 bd cc 38 56 3d 09 5c fc bd 53 63 79 bd
       -0.035964876 0.05230026 -0.12322242 -0.06088574
000180 eb 7c 6d 3c 36 df 40 bd 65 be 4d be 84 96 8e 3d
       0.014495115 -0.04708787 -0.20092161 0.06962302
000190 24 79 d0 3c 38 93 91 bd e6 61 91 bd 2d aa f0 bd
       0.02544839 -0.07108158 -0.07098751 -0.117512085
0001a0 c2 13 de 3c 81 d0 6a bd 81 c5 f9 3c 6a d2 bc bc
       0.02710903 -0.05732775 0.030489685 -0.023049552
0001b0 1f ac 1a be fb 2e b2 bc c1 24 28 3e d7 fa 9f bd
       -0.15104721 -0.021750918 0.1642027 -0.07811516
0001c0 eb b0 13 bd c5 40 de ba 44 a2 e7 bd 32 1e a8 bd
       -0.036057394 -0.0016956559 -0.113102466 -0.08208884
0001d0 ae 82 10 3e 7a be 19 bd e5 2c 0b 3d d2 d3 12 bd
       0.1411235 -0.03753517 0.03397836 -0.03584654
0001e0 7c 91 c2 3c 8c 46 6a bc ec 0f f4 bd 9b 65 74 bd
       0.023751013 -0.014299046 -0.11917099 -0.05966721
0001f0 e2 b9 2d be 58 5e 5e bd 45 c1 1f be 8b 2f ae bd
       -0.1696544 -0.054289192 -0.1560107 -0.08505162
000200 76 36 ad 3a 77 c5 53 3c e4 79 c6 bb 1e 67 a4 3d
       0.0013215083 0.012925497 -0.006057011 0.080274805
000210 bd bb ae bc a2 7d ad 3d f7 b2 f8 3c 6d 2a c9 bd
       -0.021329755 0.08471228 0.030358775 -0.09822545
000220 ae 4a a2 3c b8 f9 f0 bd b3 c1 9f bd 00 64 28 bd
       0.019811 -0.1176638 -0.07800617 -0.041110992
000230 c8 3c 63 3d c8 a6 8a bc 24 84 9a bb 91 7e 02 bd
       0.055477887 -0.01692523 -0.0047154594 -0.031858984
000240 1c 8b 73 bd a2 2f 73 3c 62 48 70 3d b4 da 89 3d
       -0.059458837 0.0148428995 0.05866278 0.067311674
000250 44 57 b5 bd c5 56 16 bd 81 11 38 bd c8 fa 11 3d
       -0.08854535 -0.036703844 -0.044938568 0.035639554
000260 6e b6 ea bd e8 71 66 bd 06 a6 0a bd 2b 77 cb 3d
       -0.11460577 -0.056260973 -0.03384974 0.09934839
000270 9c a4 27 bd d7 d2 bf bd c2 5c 3b be d1 a9 5b bd
       -0.040928468 -0.093663864 -0.18297103 -0.053628746
000280 3a 80 32 bd 73 fb 9a 3c 0c 2a bb bd d4 e5 4a bc
       -0.043579318 0.018918728 -0.09138879 -0.012383897
000290 85 1f 1a be be 71 be 3c 23 1d 97 3c 2d 37 0c be
       -0.15051086 0.023247596 0.01844651 -0.13692923
0002a0 68 bb a9 bb 92 0f 2f 3d 8d 70 4b be ff 0b 99 bc
       -0.0051798113 0.04273946 -0.19867153 -0.018682478
0002b0 ba 46 a6 3c 3f ab aa bc a3 12 0d bc b4 0a 0f 3d
       0.020297397 -0.02083361 -0.0086104 0.034922317
0002c0 7d e2 2b 3c f4 5b 5b 3d ee 2b eb 3b 92 2b 51 be
       0.010491011 0.05355449 0.0071768677 -0.20426777
0002d0 08 88 26 be cf a3 16 be 4e c7 ad 3d bb b2 d3 3c
       -0.1626283 -0.14710926 0.0848528 0.025842061
0002e0 37 36 00 be 86 cb c1 3d 77 a8 9d 3d dc 23 b1 bc
       -0.12520681 0.09462647 0.07698148 -0.021623544
0002f0 c5 95 b8 bc 3e 1a 0d be bb b7 d2 3c a7 91 da bc
       -0.022532353 -0.13779542 0.025722375 -0.02668078
000300 0e 91 f4 bd e6 3f 03 bd 68 56 d5 3b e6 2c 2d bc
       -0.119417295 -0.03204336 0.0065105446 -0.010569787
000310 7f 10 62 be 95 da e6 3d f5 8e 5d 3d 3d ba e5 bc
       -0.22076605 0.1127216 0.054091413 -0.028042907
000320 d9 9f c8 bd f3 6e 4c bd b0 6f 20 3d 23 c2 fd bd
       -0.097961135 -0.049910497 0.039169014 -0.12390544
000330 1f a7 0a bb f5 2a 69 3d ac 06 c2 bd 28 0b 0f 3d
       -0.002115674 0.056925733 -0.09473929 0.03492275
000340 db 70 9b 3d 91 42 e9 bd ae 0f 05 bd c8 84 81 3d
       0.07589885 -0.1138965 -0.032485656 0.06324154
000350 db 13 8b 3c 4b 6a 19 be 3e 6f a4 3d 47 e9 96 3d
       0.016977241 -0.14981954 0.0802903 0.07368713
000360 9c fe 86 3d e2 e2 e7 bc f2 1d 84 3d da e8 a6 3d
       0.06591532 -0.028306428 0.06451024 0.08149882
000370 16 7e 9a 3d a9 d7 8c 3d e0 02 55 bc 2b fe 17 be
       0.0754358 0.068770714 -0.013001174 -0.14843051
000380 69 91 20 be ad 0f 49 be ce 60 0f 3c 89 26 d2 3d
       -0.1568047 -0.19634886 0.008751107 0.10261256
000390 69 61 04 3d 59 92 27 bd ff fd 81 3d 4f d4 2d bd
       0.03231946 -0.040911052 0.06347274 -0.0424388
0003a0 af 4b a2 bd 0f d6 c8 bd 11 e1 94 3c c3 84 c9 bc
       -0.07924592 -0.098064534 0.018173726 -0.024599439
0003b0 53 dc 5a bd 63 2c 7e bd 31 d7 a9 bd 4b 3f 9a 3d
       -0.053432774 -0.06205405 -0.08292998 0.075316034
0003c0 b4 7f ec 3c 20 c3 a9 bb fb c0 cc 3d 7a 65 87 bd
       0.028869487 -0.0051807314 0.099977456 -0.06611152
0003d0 f8 ca af 3c 74 d0 38 be 50 b4 48 bb f8 01 38 3c
       0.021459088 -0.18048269 -0.0030625053 0.011230938
0003e0 11 bb 16 bd 57 8a 31 bd b9 95 4f be ea 47 d1 bd
       -0.036799494 -0.04334482 -0.20271958 -0.10218795
0003f0 cf 7c 23 3b 5b 06 85 bc 43 12 3e be 81 6c 07 be
       0.0024946218 -0.016238382 -0.18561654 -0.13224985

convs.2.lin_r.weight f4 [40, 256]
000000 01 6d 1d bd cf e7 96 3d 3f 56 22 bd 8d d3 18 3d
       -0.038434032 0.07368433 -0.039633032 0.037311126
000010 b9 e5 16 bb 0e 55 9a bd 35 4d 63 bd 43 90 48 3d
       -0.002302511 -0.07535754 -0.055493552 0.048965704
000020 26 08 03 be e3 dd 66 bc 61 90 ed bb aa b8 82 bd
       -0.12796077 -0.014090988 -0.0072498773 -0.06382878
000030 ee b6 e8 3c 12 2c 7f bd b4 f9 55 3d c7 2c 7e 3d
       0.02840754 -0.062297888 0.05224009 0.06205442
000040 b4 3f 04 3d 8b 1c 94 bc f6 2e 15 3c a2 f1 87 bd
       0.032287315 -0.018080017 0.009105435 -0.06637885
000050 41 1b b9 bd 5d 6a 0a bd 1d 85 80 3d 7b 5e f6 bd
       -0.090384014 -0.033792842 0.06275389 -0.120297395
000060 46 f3 63 bd 3f 18 43 3d 2f 24 c2 3d 7a ff 6f bd
       -0.055651926 0.047630545 0.09479558 -0.05859325
000070 77 cc 0c bd b6 c4 58 3b 06 d6 d6 3c 90 cb f4 3c
       -0.03437468 0.0033076233 0.026225101 0.029882222
000080 bb 17 50 3c 9f a0 65 3d 9d a8 0a 3c a5 27 3d bd
       0.01270097 0.056061383 0.008463052 -0.046180386
000090 24 99 74 3d 97 23 2c 3d 8e e0 4d 3d 44 fb 21 3d
       0.05971636 0.04202613 0.05026298 0.039546266
0000a0 b7 ef 3f 3c 2a 91 45 bd 31 25 2a 3d a4 ca 84 bd
       0.011714867 -0.048234142 0.041539375 -0.06483963
0000b0 86 c5 88 bd af c0 2f bd 26 8c bf bd 9c 21 03 bd
       -0.066782996 -0.042908367 -0.09352903 -0.032014474
0000c0 cd 58 91 3d fa d0 9c 3b a3 7d 9c 3c 1a 8e 02 be
       0.070970155 0.004785654 0.019102877 -0.1274952
0000d0 5b 0f b4 3c 90 44 12 3c 39 d6 80 3c 5c 85 0e 3d
       0.021979978 0.008927479 0.01572715 0.03479515
0000e0 ff 14 4b bd 31 83 70 bb 54 a4 2c 3d 82 b3 37 bc
       -0.04958057 -0.003669929 0.042148903 -0.011212232
0000f0 06 36 08 bd fe 64 58 3d af 46 6e 3d c3 fd c7 bd
       -0.033254646 0.05283069 0.058172878 -0.09765198
000100 9b 54 19 be 80 17 e0 bc 1f a6 e3 3c 17 cf 09 3a
       -0.1497368 -0.027354956 0.027789174 0.0005256994
000110 f2 43 25 bc 77 2b 2a bd ab 00 ee 3c 73 ed 95 bd
       -0.010087 -0.041545358 0.029053053 -0.073206805
000120 a7 6a dc bc 51 1d 2a be 53 0c 48 3d a2 00 26 bd
       -0.026906325 -0.16612746 0.04883988 -0.040527947
000130 2a 6e 13 3c e1 35 96 3d 81 35 76 bd d1 b9 34 3d
       0.008998433 0.07334495 -0.06010962 0.04412252
000140 30 d3 31 bd ec aa 83 3d a7 9f b0 bd da 53 a1 bd
       -0.043414295 0.06429085 -0.08624201 -0.078773215
000150 90 f9 39 3d b6 0b 0b bd b3 85 ee 3c 3f 86 01 bc
       0.045404017 -0.033946715 0.029116487 -0.007905542
000160 c8 e1 27 3d 0c 73 81 bd 11 d9 b0 3d b5 01 c7 bd
       0.040986806 -0.063207716 0.08635152 -0.097171225
000170 13 56 98 bd 30 42 1b 3d ee 7f 1a be 0d 7a 03 bd
       -0.07438292 0.03790492 -0.15087864 -0.03209882
000180 5b 13 15 3c 71 37 70 bb e4 6b b2 bd 9f ad a9 3d
       0.009098853 -0.003665414 -0.08711985 0.08285069
000190 1f 87 1a 3d 41 58 f2 bd f4 fa ac 3c 08 ab 11 be
       0.037726518 -0.11833239 0.021115758 -0.142254
0001a0 e4 38 94 bc 29 ac b1 bc 67 e9 a6 bb a7 b6 65 bc
       -0.018093534 -0.021688538 -0.0050937417 -0.0140205985
0001b0 30 6e 64 bd 8f 46 dd 3c c8 df d7 3d 0f f2 08 be
       -0.055769145 0.027011184 0.1054073 -0.13373588
0001c0 a6 c8 4f bd ce d0 59 bd 91 a0 5f bd 6b f0 c6 bd
       -0.050728463 -0.053177647 -0.054596487 -0.09713825
0001d0 cc 4d d8 3d 24 66 63 bd 71 c6 74 3d a6 9c a1 bd
       0.105617136 -0.05551733 0.05975956 -0.078912064
0001e0 69 bd 10 3d d3 4d 2f 3c 2a 41 55 bd 26 62 94 bb
       0.035336886 0.010699707 -0.0520641 -0.004528302
0001f0 81 7e a4 bd 57 06 68 bd 4d cb a5 bd fe a8 58 bd
       -0.08031941 -0.05664667 -0.08095417 -0.05289554
000200 94 a9 80 bc f6 1f 0b 3c fc 4a e8 3c f1 95 fe 3c
       -0.015705861 0.008491507 0.028356068 0.031077357
000210 af 4f a9 bd a9 6e 22 3d 0c 2f b1 bb bc 72 00 be
       -0.082671516 0.039656315 -0.0054072198 -0.12543768
000220 dd 18 24 3d 3b d5 13 be 7d ec 21 bd 05 f4 83 3c
       0.040062774 -0.1443681 -0.039532173 0.016107569
000230 27 64 08 3d 6b ba 5c 3c 31 ee d6 bc 17 06 80 bd
       0.033298638 0.01347218 -0.026236625 -0.062511615
000240 03 c1 5d bd 3a e5 48 bd 18 cf 33 3d 02 8e ea bc
       -0.05413915 -0.049046732 0.043898672 -0.028632168
000250 dd 00 31 bd 70 9c 99 3d 23 da 87 3c ba 03 3c bd
       -0.043213714 0.07500541 0.016583508 -0.04590199
000260 e0 e1 67 be 27 70 57 3d ed 9a d8 3c 15 1d 0c 3d
       -0.22644758 0.05259719 0.026441062 0.034207422
000270 93 da c0 3b b6 43 f3 bd 63 c9 0a be ab aa d8 bc
       0.005885431 -0.11878149 -0.13553385 -0.026448568
000280 af 82 67 3b 93 75 5c 3c 9e a8 90 3c 37 61 ac bc
       0.0035325696 0.013455766 0.017658528 -0.02104245
000290 52 c7 ca bd 0a 85 5d bc 96 20 8a 3d 93 46 0f be
       -0.099012986 -0.0135204885 0.067444965 -0.13991766
0002a0 e5 cf de 3c 5c 4d a4 3c 8e 26 cd bd 68 d2 de b9
       0.027198741 0.02005642 -0.10017119 -0.00042499905
0002b0 d2 6d 94 3d c1 2f b5 bc 79 4f 26 bc 0a da 18 3d
       0.07247509 -0.022117497 -0.010150784 0.037317313
0002c0 e0 73 2a bc 04 ec 1f 3d 36 e8 7d bc d5 3a 19 be
       -0.010403603 0.03904344 -0.015497258 -0.14963849
0002d0 25 d4 70 bd 68 c2 7e bd fb 55 f5 3c f5 f1 59 3d
       -0.058796067 -0.06219712 0.029948225 0.053209264
0002e0 47 21 b2 bd d9 74 99 3d 55 24 a4 3c bb 3e 3e bc
       -0.086977534 0.0749299 0.020036856 -0.011611636
0002f0 0c d3 01 3d b6 88 57 bd 43 b1 35 bc fe ea 3f bd
       0.03169541 -0.052620612 -0.011089626 -0.046854965
000300 ec 41 f4 bd 97 6f 81 bc 42 36 ba 3c 1a 96 6d 3d
       -0.11926636 -0.01580028 0.02273095 0.058004476
000310 d7 4e 32 bd 7f 07 84 3d 28 8f 07 3d c4 60 35 bc
       -0.04353222 0.06446742 0.03309551 -0.011070434
000320 f6 03 13 bd 95 ea 24 bc 0a a5 13 3d b5 61 36 bd
       -0.03589245 -0.010065694 0.036046065 -0.044526774
000330 58 f0 81 bc 15 22 29 bc 0e d0 8b bd 19 b9 38 3d
       -0.015861675 -0.010323067 -0.06826793 0.045098398
000340 b7 f4 2b 3d 4e 98 88 bd 39 0d 9f bd da 5a 63 3d
       0.041981425 -0.06669675 -0.07766194 0.055506565
000350 84 c8 36 3d 63 bc 56 bc 3f 9d 80 3d 00 13 1f 3c
       0.04462482 -0.013106438 0.06279992 0.00970912
000360 7c 46 67 3d 7c b2 4b bd b2 a2 3b 3d 2c 97 4f 3d
       0.056463704 -0.049730763 0.045809455 0.050681278
000370 18 92 12 3d 12 5f 82 3d 61 d1 06 3d 17 7b 0d be
       0.035783857 0.063657895 0.032914523 -0.13816486
000380 a1 64 05 be 17 92 1a be 0c 9f 31 3c 4b 80 9a ba
       -0.13026668 -0.15094791 0.010841142 -0.0011787502
000390 1c f7 91 bc 3b 76 4d 3c ef 58 2e 3d 9e 57 3f 3d
       -0.017818026 0.012540395 0.042565282 0.046714418
0003a0 98 97 b5 bc 2e 25 82 bd bc d6 ad 3d 11 04 0a bd
       -0.022167012 -0.06354748 0.08488223 -0.033695284
0003b0 3e fb 96 3c ab 4d f4 bc 78 cf 8d 3c 4f 3f 05 3d
       0.018430348 -0.029822191 0.017310843 0.03253108
0003c0 51 19 5a 3d 3a 5e a5 3c 91 ba 7d 3c 57 15 a6 bc
       0.0532468 0.020186532 0.015486375 -0.020273848
0003d0 44 77 95 bc d0 9a 96 bd a4 2c 12 bd e7 52 9b bc
       -0.018245347 -0.07353747 -0.035687104 -0.01896043
0003e0 2a 24 c6 3b fe 34 44 3b 87 73 e8 bd 49 26 20 be
       0.0060467916 0.0029938812 -0.1135016 -0.15639605
0003f0 59 96 89 bd 1c 55 e4 bc 30 08 0d be 83 29 9d bc
       -0.0671813 -0.027872615 -0.13772655 -0.019184833
